results_autoencoder/autoencoder_2l_16c/model_weights.pth (torch, 41864 bytes, 7 tensors)

encoder.0.weight f4 [16, 1, 3, 3]
0.0141198225 0.046109557 -0.22221895 0.3482207 -0.012846207 -0.05107129 0.26544622 0.32464182
0.19591345 0.24905232 0.034091312 -0.01904338 -0.147678 -0.27186728 -0.17565967 0.12315045
-0.1420041 -0.101303354 -0.05037247 0.24558167 -0.14181444 0.3469821 0.05113009 0.21054848
0.3367062 -0.072198726 0.20683551 0.07058609 0.2208411 -0.20053865 0.15218611 0.35269755
-0.05707882 -0.29907322 0.11072819 0.34554976 0.10197965 0.31997597 -0.04291296 -0.11751443
-0.1727088 0.29428098 -0.105404094 -0.2711878 0.33096576 -0.120725326 -0.083036624 -0.009683167
-0.14567606 0.06590735 -0.17551303 0.26560503 -0.27645543 0.36261967 0.18324298 -0.2062262
0.087739944 -0.038824067 -0.17752405 -0.27166283 0.29178014 -0.12455281 -0.08057684 0.15096553
0.07955198 0.20054209 0.18138234 -0.25098062 -0.13345419 -0.14323841 0.21520872 0.17445713
0.26408422 0.020488853 0.35511222 0.13353279 -0.18428135 0.36792082 0.058185644 0.21114981
0.11050964 -0.048146617 0.29406404 0.07111285 -0.037253525 0.13858874 0.21180634 0.030964244
-0.14271343 -0.18241672 0.24267437 0.10277685 -0.1510769 -0.2812521 0.12732857 0.20801409
-0.062126234 0.12317058 0.11343826 -0.378332 -0.19712207 0.04966635 -0.007524996 0.084287405
0.14311585 0.18382807 -0.12528053 0.3851534 0.12552558 0.05317975 -0.18611874 0.29037568
0.32261938 0.3415871 0.2418332 0.041369893 0.076996975 0.035388507 -0.07517786 0.34601554
0.01850459 0.07059576 -0.23220405 0.29356837 0.2795672 -0.03625258 -0.28852054 0.28411555
0.2503819 -0.15055382 -0.1864545 0.17844084 -0.1398994 -0.17598028 0.20888615 0.29649588
0.073660575 0.056994814 0.09150347 -0.009444132 0.05679039 0.32133597 -0.21869011 0.0042010676
00000000: d456 673c 60dd 3c3d 5d8d 63be fc49 b23e
00000010: e678 52bc 2130 51bd 91e8 873e 7437 a63e
00000020: 899d 483e 9207 7f3e 55a3 0b3d dd00 9cbc
00000030: e738 17be 3032 8bbe 21e0 33be 4e36 fc3d
00000040: 8669 11be 2278 cfbd 5d53 4ebd c379 7b3e
00000050: ce37 11be a3a7 b13e c96d 513d 059a 573e
00000060: c164 ac3e eddc 93bd b0cc 533e 718f 903d
00000070: 2b24 623e 015a 4dbe add6 1b3e c694 b43e
00000080: 7bcb 69bd 2020 99be 76c5 e23d e6eb b03e
00000090: b5da d03d e4d3 a33e 80c5 2fbd 68ab f0bd
000000a0: 93da 30be ffab 963e 1ade d7bd 21d9 8abe
000000b0: 5874 a93e d73e f7bd 1b0f aabd 25a6 1ebc
000000c0: 1b2c 15be 6ffa 863d b0b9 33be 62fd 873e
000000d0: 918b 8dbe 49a9 b93e 0ca4 3b3e f62c 53be
000000e0: 00b1 b33d fc05 1fbd ddc8 35be 6417 8bbe
000000f0: 3564 953e 8b15 ffbd 7805 a5bd b596 1a3e
00000100: 26ec a23d e85a 4d3e 4bbc 393e 8880 80be
00000110: 37a8 08be 17ad 12be ad5f 5c3e e4a4 323e
00000120: 0c36 873e 3dd8 a73c 45d1 b53e d2bc 083e
00000130: 40b4 3cbe 1e60 bc3e 1254 6e3d a837 583e
00000140: e152 e23d 6335 45bd 908f 963e 9da3 913d
00000150: 2797 18bd 35ea 0d3e c3e3 583e baa8 fd3c
00000160: 7823 12be 73cb 3abe a17f 783e ab7c d23d
00000170: e7b3 1abe 4600 90be 6c62 023e a501 553e
00000180: 1478 7ebd db40 fc3d 5252 e83d bbb4 c1be
00000190: 5eda 49be f16e 4b3d 3e94 f6bb e09e ac3d
000001a0: f68c 123e 6d3d 3c3e 8a49 00be d432 c53e
000001b0: c789 003e 02d3 593d e995 3ebe 1fac 943e
000001c0: 5e2e a53e 81e4 ae3e 1fa3 773e 7a73 293d
000001d0: 97b0 9d3d 8af3 103d daf6 99bd f328 b13e
000001e0: f096 973c 8394 903d e6c6 6dbe 984e 963e
000001f0: 6f23 8f3e 967d 14bd f7b8 93be 9877 913e
00000200: 0e32 803e c82a 1abe eeed 3ebe 32b9 363e
00000210: ca41 0fbe 2d34 34be 40e6 553e 4fce 973e
00000220: 5bdb 963d 6573 693d 2c66 bb3d 90bb 1abc
00000230: 0a9d 683d 2686 a43e 4df0 5fbe 1ca9 893b

encoder.0.bias f4 [16]
0.058870748 0.45378122 -0.21543019 -0.112000495 -0.25926962 0.11909424 0.34303704 -0.07786029
0.1103521 0.073078535 -0.3626506 -0.080960006 0.27823904 -0.061608195 0.33310363 0.023866368
00000000: 7422 713d 0356 e83e bb99 5cbe 8460 e5bd
00000010: fdbe 84be aee7 f33d 8da2 af3e 3775 9fbd
00000020: 4800 e23d 33aa 953d 57ad b9be 5cce a5bd
00000030: 5975 8e3e e058 7cbd 8f8c aa3e 6783 c33c

encoder.3.weight f4 [32, 16, 3, 3]
0.064781465 0.022067335 -0.054440252 -0.008946537 0.0933251 0.12134991 -0.018308638 -0.01894323
-0.04754398 0.024486333 -0.14285173 0.10639666 -0.20931911 -0.33148795 0.07990601 -0.08496633
0.022227248 0.10655433 -0.07707347 -0.0049725375 0.06059485 0.031633068 0.06101585 0.013842977
0.00062524434 -0.02765311 0.087707214 -0.042471375 -0.01586646 -0.013130247 0.079217225 -0.016781699
0.039743133 0.06751977 0.10657075 0.09561347 0.030053768 -0.21730845 -0.12183683 0.21272406
-0.058766615 -0.18619463 0.25758573 0.33443204 0.26809278 0.051840786 0.030437917 -0.029946396
-0.016037144 -0.18408038 -0.040951826 -0.023438603 -0.21705112 -0.1396249 0.05414162 -0.07777442
0.18486537 -0.23998079 -0.21629353 0.11421692 -0.08685952 -0.12718111 0.015506321 -0.052326
-0.05413748 0.05432309 0.012422402 0.08349878 0.02093104 0.04123747 0.052741215 -0.02026618
0.019375307 -0.06429631 -0.06374888 0.022483319 -0.006678342 0.10096812 -0.022299848 0.023432842
-0.017840149 -0.07935582 -0.009343775 -0.090163335 -0.034478955 0.07203426 0.07951766 0.099743955
0.10117045 0.064101 0.085766435 0.13406342 0.0717685 0.051279496 0.1839944 0.16285238
0.026128564 0.11328657 0.0791597 0.19607374 0.21514788 -0.061132234 0.30741167 0.16917817
-0.18729125 -0.1946925 -0.5088406 -0.4998819 0.0064058527 0.025142172 0.07096703 0.06220605
0.020564958 0.06810669 -0.047183413 0.06947299 0.0698041 -0.0031175883 0.050120972 -0.03938294
-0.018085625 -0.020332694 0.075943485 0.073546626 0.035910007 0.041895278 -0.012392474 0.08297888
-0.00049021444 0.071086906 0.078233205 -0.02302585 0.043220144 0.03663214 -0.062161554 0.055242836
0.0029846244 -0.0058165505 0.0466233 -0.023760723 -0.018239511 0.02069897 0.06839319 0.11182145
0.0661866 0.017769357 -0.011226699 -0.09669282 0.020739654 0.042806145 0.029975861 -0.05643184
-0.037508372 -0.03909167 -0.17109938 0.017624544 0.0724169 -0.0703574 0.099865094 0.015853077
-0.0858452 0.13948876 0.101263955 0.069379434 -0.026433717 -0.057593886 -0.050406974 0.04743519
-0.0013213579 -0.03162903 0.050199512 0.11593527 0.03291883 0.028719401 0.08555201 0.102114
0.03882619 -0.043389168 -0.060519274 -0.037522305 0.2817507 0.25392264 0.11400719 0.4772809
0.3183366 0.10979312 0.34390524 0.32456735 0.14131095 -0.048944175 0.0892806 -0.049141962
-0.13443665 -0.13714738 -0.1251265 0.1854623 0.102167875 0.081716314 -0.123585686 -0.18238851
-0.052051898 0.015783204 -0.20584667 0.047354538 0.11504235 -0.018619321 0.1109201 0.051319975
0.12775624 0.027307961 -0.016662553 0.105675675 0.027385745 0.06042473 -0.047478385 0.10527636
0.10879265 0.020227147 -0.019088712 0.063154936 0.005123422 -0.02601871 -0.029168002 0.057047747
-0.003191166 0.00092740206 0.00068378926 0.037026465 0.062038336 0.0659452 -0.007057482 0.033708025
-0.023727315 -0.016460752 0.14584345 0.14269562 0.06510361 0.08905672 0.1273331 0.06550948
0.036968373 0.06448449 0.09829832 -0.13125972 0.38588566 0.42956412 -0.5438989 -0.043785412
-0.38027206 0.3058903 0.11453171 -0.062267985 0.007944366 0.002207376 0.06378874 -0.07745413
00000000: 25ac 843d 8ec6 b43c befc 5ebd 7f94 12bc
00000010: 3b21 bf3d 4d86 f83d fffb 95bc d52e 9bbc
00000020: 7abd 42bd 9097 c83c b947 12be 7ee6 d93d
00000030: c057 56be cab8 a9be c3a5 a33d d402 aebd
00000040: eb15 b63c 2839 da3d b2d8 9dbd abf0 a2bb
00000050: 4e32 783d ad91 013d c2eb 793d a7cd 623c
00000060: 70e7 233a c688 e2bc d79f b33d 77f6 2dbd
00000070: 61fa 81bc 3f20 57bc a43c a23d c679 89bc
00000080: b2c9 223d ce47 8a3d c441 da3d ffd0 c33d
00000090: 5233 f63c 1b86 5ebe 9785 f9bd 56d4 593e
000000a0: 43b5 70bd cea9 3ebe 47e2 833e ad3a ab3e
000000b0: 7543 893e 0157 543d f058 f93c 2552 f5bc
000000c0: 5460 83bc 917f 3cbe 1abd 27bd 5002 c0bc
000000d0: a642 5ebe d4f9 0ebe 9ac3 5d3d 3248 9fbd
000000e0: 594d 3d3e 86bd 75be 0d7c 5dbe 90ea e93d
000000f0: 67e3 b1bd c43b 02be 390e 7e3c ca53 56bd
00000100: 43bf 5dbd e381 5e3d 5587 4b3c 6901 ab3d
00000110: 9377 ab3c 9fe8 283d 2c07 583d 4305 a6bc
00000120: f7b8 9e3c c9ad 83bd c68e 82bd f02e b83c
00000130: fed5 dabb 60c8 ce3d 2cae b6bc 3bf6 bf3c
00000140: 8125 92bc 4e85 a2bd a216 19bc 8ea7 b8bd
00000150: ce39 0dbd b386 933d 28da a23d 8f46 cc3d
00000160: 7432 cf3d 6347 833d 50a6 af3d ec47 093e
00000170: 5dfb 923d 730a 523d 0769 3c3e c6c2 263e
00000180: 920b d63c ca02 e83d 7b1e a23d 8ec7 483e
00000190: ba4f 5c3e cb65 7abd 1065 9d3e 0b3d 2d3e
000001a0: 47c9 3fbe 795d 47be 6143 02bf 85f0 ffbe
000001b0: 30e8 d13b f5f6 cd3c 2a57 913d c5cb 7e3d
000001c0: d877 a83c 857b 8b3d 6543 41bd db47 8e3d
000001d0: 74f5 8e3d 7450 4cbb a64b 4d3d 0150 21bd
000001e0: 4e28 94bc c090 a6bc 4288 9b3d 9d9f 963d
000001f0: 5f16 133d 629a 2b3d ce09 4bbc d5f0 a93d
00000200: bc81 00ba 0396 913d bb38 a03d b5a0 bcbc
00000210: 9b07 313d 950b 163d 1d9d 7ebd 5046 623d
00000220: b099 433b c398 bebb 13f8 3e3d d9a5 c2bc
00000230: 076b 95bc e390 a93c bb11 8c3d a502 e53d
00000240: d78c 873d 0b91 913c 30f0 37bc e306 c6bd
00000250: 35e6 a93c 7f55 2f3d f08f f53c 1325 67bd
00000260: 61a2 19bd 961e 20bd ad34 2fbe 5961 903c
00000270: 504f 943d 8a17 90bd 1286 cc3d 50de 813c
00000280: 9ccf afbd 24d6 0e3e 7a63 cf3d ce16 8e3d
00000290: 868b d8bc 91e7 6bbd 8b77 4ebd 674b 423d
000002a0: 6a31 adba 718d 01bd 019e 4d3d 796f ed3d
000002b0: e5d5 063d f344 eb3c e435 af3d 2521 d13d
000002c0: 3608 1f3d d7b8 31bd 0fe3 77bd fdb0 19bd
000002d0: a141 903e 2602 823e 9a7c e93d 2a5e f43e
000002e0: 04fd a23e 37db e03d 5914 b03e b12d a63e
000002f0: d1b3 103e b079 48bd bfd8 b63d 1549 49bd
00000300: c3a9 09be 5d70 0cbe 2921 00be d4e9 3d3e
00000310: 643d d13d e25a a73d 7e1a fdbd 0ec4 3abe
00000320: 5f34 55bd c74b 813c 78c9 52be d5f6 413d
00000330: 539b eb3d 8c87 98bc 142a e33d e534 523d
00000340: 88d2 023e f2b4 df3c e87f 88bc 7d6c d83d
00000350: 1258 e03c ec7f 773d b278 42bd 229b d73d
00000360: aece de3d 67b3 a53c ee5f 9cbc 6057 813d
00000370: 61e2 a73b 3125 d5bc bcf1 eebc e6aa 693d
00000380: e222 51bb e61c 733a 5240 333a 10a9 173d
00000390: e91b 7e3d 470e 873d 7342 e7bb 6d11 0a3d
000003a0: c95f c2bc b3d8 86bc fc57 153e cd1e 123e
000003b0: 0b55 853d 5f63 b63d 9c63 023e d629 863d
000003c0: 266c 173d 7210 843d a150 c93d f368 06be
000003d0: ce92 c53e d4ef db3e f53c 0bbf 5558 33bd
000003e0: 05b3 c2be a79d 9c3e 9a8f ea3d b70c 7fbd
000003f0: 1629 023c a0a9 103b aca3 823d 45a0 9ebd

encoder.3.bias f4 [32]
0.018816108 0.06419141 0.007710103 0.01756216 0.051294524 -0.0721039 -0.04950525 -0.033748362
0.09280577 -0.029084483 0.021577142 0.07737394 -0.020418968 0.03082075 0.074913785 0.06579517
-0.026383491 0.026832025 0.16407166 0.08962442 -0.02052671 0.034445725 0.0054755937 0.026525551
0.077640764 0.076334335 0.0077014216 -0.013080433 0.04911841 -0.06192026 0.078656085 0.09950872
00000000: 3d24 9a3c c976 833d 08a5 fc3b 85de 8f3c
00000010: 351a 523d 36ab 93bd 04c6 4abd b93b 0abd
00000020: f410 be3d 9542 eebc 8cc2 b03c 3a76 9e3d
00000030: ae45 a7bc cc7b fc3c 666c 993d 9ebf 863d
00000040: 3122 d8bc d6ce db3c 6702 283e 028d b73d
00000050: a227 a8bc f616 0d3d 9c6c b33b 1d4c d93c
00000060: 1f02 9f3d 2d55 9c3d 355c fc3b 504f 56bc
00000070: 6330 493d 19a0 7dbd 7116 a13d 3acb cb3d

decoder.0.weight f4 [32, 16, 3, 3]
0.0150200715 0.024074951 0.04723595 0.057660967 0.099797994 -0.029443324 0.03853403 0.05616165
0.12939197 -0.052339207 0.09657749 -0.057836715 -0.044357322 0.029460741 0.06494276 0.08930665
0.019346306 -0.02896706 0.03912029 0.087545745 0.092548415 -0.0027036904 -0.024900721 0.026635347
0.061915807 -0.07373364 -0.13545147 0.07069872 0.032536488 0.07157885 0.030625159 -0.055686485
0.16994831 0.09522579 -0.061434105 0.122769274 -0.056159277 0.015200455 -0.042495728 -0.058112454
0.09431721 -0.013855796 0.05056432 0.065579824 -0.024503851 -0.02306964 0.0431574 0.11412518
0.01939908 0.09839797 -0.064597204 0.039140914 0.07222364 -0.014144568 0.07746662 -0.05681883
0.012084154 -0.060952008 0.063789904 0.00343325 0.06545139 0.088987134 0.110214606 -0.055597637
-0.016333045 0.007590557 -0.008674515 0.036757547 0.008440992 0.060341477 -0.027959649 -0.030232787
0.049070034 0.044388745 0.015513929 -0.01735472 0.10589701 0.016675634 0.046156593 -0.034522194
-0.098308906 -0.008518253 -0.03262615 -0.005899868 0.012014187 0.10438269 0.0348779 0.059147842
-0.048435263 0.08302312 0.003361375 0.069151275 0.031182896 -0.012949971 0.0052118674 0.065389395
0.02794345 -0.024012811 -0.0012808924 0.011010114 -0.04305745 -0.04353532 0.0587907 0.078133754
0.022042701 0.02815007 -0.0074810605 0.07238685 0.026037684 0.06750459 -0.01873851 -0.010111431
-0.052466568 0.00897001 0.0054681227 0.065596625 0.014549819 -0.010461492 -0.017147016 -0.008482938
-0.0034549357 0.013377792 0.05554315 -0.0087624565 0.0073071243 0.09537128 0.04061493 0.0679545
0.033965643 0.016277434 0.034052834 0.00528194 0.02825738 0.10174481 0.10528321 -0.10195612
-0.01787986 -0.03880801 0.0025606565 -0.041480802 -0.026428897 -0.089574225 -0.0780875 0.13265365
0.03143668 0.015028601 0.036451016 0.0050290003 -0.028962793 -0.031385887 0.077686176 -0.06785845
0.025654586 0.052497692 0.029746875 0.007769845 0.10396989 -0.0003977394 0.08266046 -0.011725487
0.021769613 -0.048916016 -0.021379758 -0.05654922 0.07135296 0.027105734 -0.08835467 -0.01643624
0.04726724 0.047738243 0.04304093 -0.023592802 -0.059922546 -0.03969815 0.033347175 0.055717885
0.06332693 -0.012803563 0.068419464 0.08012213 -0.061496418 -0.021813193 0.036025357 -0.0053948243
0.03235291 0.04879191 0.023214938 0.053338178 0.056255702 -0.003710841 0.08140242 0.020229964
0.059815485 0.04416481 -0.09859004 0.04194751 0.0052047814 -0.0072243516 0.10005505 0.024267921
0.042783108 0.06438692 -0.023987614 0.061553493 0.039930165 -0.051194683 0.04863115 0.00899579
0.008521854 0.031976085 -0.042474773 0.040717702 -0.05844885 0.030595008 0.047319997 -0.062200274
-0.038750786 -0.047364954 0.07310011 -0.0050037866 -0.105335675 -0.0060666595 0.07676057 0.062774666
-0.005958962 -0.052531198 0.033650875 -0.020845424 0.04886524 0.061242186 -0.0470643 -0.0362239
-0.07310045 0.010771332 -0.003813908 0.0368706 -0.012564372 0.018818503 -0.0015898246 -0.0953616
0.029576616 0.0104414 0.004405634 0.11542653 0.07655105 0.074461825 0.014321617 0.10764562
-0.02050888 0.016261848 -0.0017336116 -0.08194431 -0.025856324 0.10576089 -0.007272921 0.018339273
00000000: bf16 763c d538 c53c 7c7a 413d e82d 6c3d
00000010: e462 cc3d 2033 f1bc dcd5 1d3d c209 663d
00000020: 547f 043e a361 56bd 6bca c53d 31e6 6cbd
00000030: 06b0 35bd a757 f13c b600 853d 68e6 b63d
00000040: 257c 9e3c 544c edbc 993c 203d 2f4b b33d
00000050: 068a bd3d 6630 31bb 99fc cbbc 5f32 da3c
00000060: 6e9b 7d3d aa01 97bd cab3 0abe 7eca 903d
00000070: fb44 053d ef97 923d 9de1 fa3c 8317 64bd
00000080: ee06 2e3e bd05 c33d 54a2 7bbd 756e fb3d
00000090: 4507 66bd 540b 793c 0010 2ebd 5307 6ebd
000000a0: 6229 c13d 6c03 63bc 881c 4f3d b74e 863d
000000b0: 4dbc c8bc 8bfc bcbc d0c5 303d 76ba e93d
000000c0: d2ea 9e3c e084 c93d 8a4b 84bd 3952 203d
000000d0: fde9 933d 9ebe 67bc d2a6 9e3d ddba 68bd
000000e0: 9efc 453c d0a8 79bd 48a4 823d 6000 613b
000000f0: 610b 863d e33e b63d 32b8 e13d 59ba 63bd
00000100: e1cc 85bc 35ba f83b 8e1f 0ebc 158f 163d
00000110: 164c 0a3c a028 773d a20b e5bc c0aa f7bc
00000120: a9fd 483d f9d0 353d 222e 7e3c 7c2b 8ebc
00000130: 88e0 d83d 579b 883c b20e 3d3d 2567 0dbd
00000140: 2e56 c9bd 2590 0bbc ffa2 05bd ae53 c1bb
00000150: 27d7 443c 97c6 d53d 21dc 0e3d 0245 723d
00000160: 0e64 46bd 0708 aa3d 844a 5c3b 2f9f 8d3d
00000170: 4673 ff3c 1d2c 54bc 50c8 aa3b e0ea 853d
00000180: a9e9 e43c 84b6 c4bc 9ee3 a7ba c463 343c
00000190: 025d 30bd 1752 32bd 84ce 703d 9704 a03d
000001a0: e592 b43c fa9a e63c af23 f5bb 8f3f 943d
000001b0: fb4c d53c d93f 8a3d 8181 99bc 6aaa 25bc
000001c0: 2fe7 56bd f3f6 123c f02d b33b 8657 863d
000001d0: 5d62 6e3c ae66 2bbc e677 8cbc 05fc 0abc
000001e0: 346c 62bb 872e 5b3c 3781 633d 6890 0fbc
000001f0: 9a70 ef3b 0552 c33d d75b 263d bb2b 8b3d
00000200: 8f1f 0b3d 4158 853c fc7a 0b3d 2014 ad3b
00000210: 057c e73c 955f d03d b99e d73d 5fce d0bd
00000220: c978 92bc 26f5 1ebd b0d0 273b c6e7 29bd
00000230: 6a81 d8bc b172 b7bd 57ec 9fbd 5cd6 073e
00000240: c0c3 003d 853a 763c a94d 153d 50ca a43b
00000250: 6143 edbc 7d8e 00bd ee19 9f3d 5ff9 8abd
00000260: 9129 d23c d207 573d b8af f33c 2f9a fe3b
00000270: 2aee d43d ae87 d0b9 e349 a93d 421c 40bc
00000280: 3056 b23c 295c 48bd 9a24 afbc 28a0 67bd
00000290: 8021 923d d80c de3c 4bf3 b4bd 4ba5 86bc
000002a0: 4b9b 413d 2d89 433d b04b 303d b145 c1bc
000002b0: 5871 75bd 879a 22bd 0c97 083d 7038 643d
000002c0: 8db1 813d 09c6 51bc 811f 8c3d 1217 a43d
000002d0: abe3 7bbd 95b1 b2bc 538f 133d 11c7 b0bb
000002e0: 7c84 043d 07da 473d 412d be3c 2279 5a3d
000002f0: 616c 663d 9531 73bb 50b6 a63d 4fb9 a53c
00000300: 1501 753d 29e6 343d 93e9 c9bd 27d1 2b3d
00000310: df8c aa3b 41ba ecbb a9e9 cc3d 85cd c63c
00000320: 573d 2f3d 4add 833d ac81 c4bc 841f 7c3d
00000330: d08d 233d 84b1 51bd 7531 473d 1463 133c
00000340: 3f9f 0b3c 5bf9 023d 07fa 2dbd 9bc7 263d
00000350: 1068 6fbd 62a2 fa3c 9dd2 413d b7c5 7ebd
00000360: 25b9 1ebd c101 42bd 83b5 953d cef6 a3bb
00000370: 3bba d7bd d4ca c6bb a534 9d3d 0190 803d
00000380: 6543 c3bb f42a 57bd 80d5 093d 06c4 aabc
00000390: eb26 483d 16d9 7a3d 7fc6 40bd 835f 14bd
000003a0: b0b5 95bd 3e7a 303c c2f2 79bb a005 173d
000003b0: ccda 4dbc 4329 9a3c a961 d0ba f14c c3bd
000003c0: a94a f23c 6812 2b3c 235d 903b bf64 ec3d
000003d0: ccc6 9c3d 717f 983d 37a5 6a3c 4f75 dc3d
000003e0: 3d02 a8bc 9137 853c 5a3a e3ba 6bd2 a7bd
000003f0: a4d0 d3bc 2a99 d83d af51 eebb 3e3c 963c

decoder.0.bias f4 [16]
0.06388004 0.08333749 -0.0752027 0.048892092 0.046076097 0.09434402 0.057219587 0.050402097
-0.0068541267 0.06707718 -0.0595023 0.0663793 -0.046493042 0.091648854 0.042316627 0.039718725
00000000: 8ad3 823d d9ac aa3d e003 9abd 1343 483d
00000010: 4aba 3c3d 7037 c13d 165f 6a3d 6e72 4e3d
00000020: 9598 e0bb c35f 893d afb8 73bd dff1 873d
00000030: 7d6f 3ebd 65b2 bb3d 3354 2d3d 1ab0 223d

decoder.2.weight f4 [16, 1, 3, 3]
-0.18980283 0.28652573 0.24000157 -0.21835896 0.34208506 -0.047464285 -0.04680519 0.3105302
0.35061768 -0.25877208 0.056863286 0.20351179 0.3865058 -0.057047643 0.04710069 0.12279074
0.034118254 -0.0396255 0.08410545 -0.10955128 0.17681466 -0.385079 -0.21081801 -0.32762197
0.022500923 -0.21735775 -0.1765962 -0.0526899 -0.25758004 -0.34846923 0.21648471 0.22423002
0.12596385 -0.003958059 0.22570959 -0.123361014 0.22911844 -0.2462167 0.30476093 0.3462443
-0.17749909 -0.048491947 -0.16145365 -0.14509964 0.2654178 0.0048005767 -0.28528154 -0.23725344
0.07969969 -0.45284683 -0.4096893 -0.26450846 -0.13917252 0.02638923 -0.29255846 0.26596
0.27884212 -0.00056764745 0.38584143 0.10715014 0.13658915 0.059512872 0.23274016 -0.06854495
0.26995313 0.1731998 0.013941296 0.36806285 0.0051141228 -0.13161796 0.2787881 0.3083963
-0.38073018 -0.19870809 -0.012542415 -0.41454595 -0.240178 -0.060396913 -0.23345345 -0.15179512
-0.09145704 -0.25640723 -0.098459706 0.14788736 0.35221994 0.33933392 -0.17545706 0.19833316
0.35602388 0.22201373 0.07369189 -0.19267574 -0.32320866 0.14566702 -0.29574627 -0.26016742
-0.08108109 -0.05809173 -0.23129885 0.17036068 0.03518773 -0.28014013 0.042226512 0.42759958
-0.23853922 0.12759008 0.22771291 0.07557103 0.089360654 0.18854253 -0.035965044 0.16774842
0.19745252 0.2810143 0.30648756 -0.033064563 0.15167005 0.25963813 0.28176415 0.21214096
0.15788288 0.0666498 0.3012643 -0.21705206 0.116948776 -0.20246334 0.03885786 -0.03551088
0.29349777 0.1922901 -0.096939236 0.35188282 0.2466932 0.2821555 0.15567298 -0.2473104
-0.007446384 0.21340632 -0.18060268 0.3225602 0.25353196 -0.14693059 -0.117157064 0.02642319
00000000: ac5b 42be 80b3 923e f9c2 753e 7e99 5fbe
00000010: c625 af3e e969 42bd cdb6 3fbd d0fd 9e3e
00000020: 2984 b33e c67d 84be 7ae9 683d 6565 503e
00000030: 17e4 c53e caaa 69bd a7ec 403d b679 fb3d
00000040: 95bf 0b3d 594e 22bd 7a3f ac3d 6c5c e0bd
00000050: e70e 353e 1329 c5be ade0 57be 11be a7be
00000060: db53 b83c 0893 5ebe a2d5 34be 5dd1 57bd
00000070: 88e1 83be 8f6a b2be 2bae 5d3e 8e9c 653e
00000080: abfc 003e 9bb2 81bb 6a20 673e b3a4 fcbd
00000090: 069e 6a3e 3b20 7cbe a009 9c3e ef46 b13e
000000a0: 52c2 35be 7e9f 46bd 1b54 25be 0095 14be
000000b0: d8e4 873e 284e 9d3b 6c10 92be 91f2 72be
000000c0: 9739 a33d 8adb e7be ccc2 d1be a76d 87be
000000d0: 3e83 0ebe 3a2e d83c 39ca 95be e92b 883e
000000e0: 65c4 8e3e 2dce 14ba 028d c53e 8871 db3d
000000f0: 07de 0b3e c5c3 733d 7053 6e3e 4b61 8cbd
00000100: 4c37 8a3e 4a5b 313e 096a 643c bc72 bc3e
00000110: 5f94 a73b dcc6 06be 50bd 8e3e 1fe6 9d3e
00000120: 11ef c2be 227a 4bbe b47e 4dbc 5e3f d4be
00000130: 39f1 75be c162 77bd 6c0e 6fbe 2e70 1bbe
00000140: d44d bbbd cf47 83be 3ea5 c9bd c96f 173e
00000150: 2c56 b43e 2dbd ad3e 04ab 33be d917 4b3e
00000160: c348 b63e 9157 633e c6eb 963d ca4c 45be
00000170: 9b7b a5be bc29 153e 0e6c 97be aa34 85be
00000180: d80d a6bd 98f1 6dbd 9bd9 6cbe 0873 2e3e
00000190: 0221 103d 876e 8fbe b5f5 2c3d 55ee da3e
000001a0: a043 74be f9a6 023e 932d 693e fcc4 9a3d
000001b0: b802 b73d 4b11 413e 1550 13bd 3ec6 2b3e
000001c0: fe30 4a3e 1be1 8f3e f0eb 9c3e b56e 07bd
000001d0: 654f 1b3e 4aef 843e 6443 903e 7b3b 593e
000001e0: 0dac 213e b17f 883d 503f 9a3e e542 5ebe
000001f0: d782 ef3d 8d52 4fbe 6b29 1f3d db73 11bd
00000200: 5745 963e b2e7 443e 1488 c6bd fc29 b43e
00000210: 249d 7c3e b076 903e bd68 1f3e f03e 7dbe
00000220: cc00 f4bb 3087 5a3e e9ef 38be 9c26 a53e
00000230: f1ce 813e f974 16be 0bf0 efbd 7275 d83c
