results_autoencoder/autoencoder_2l_32c/model_weights.pth (torch, 153864 bytes, 7 tensors)

encoder.0.weight f4 [32, 1, 3, 3]
-0.058718663 -0.13511983 -0.064898014 0.031913295 -0.08390946 -0.18868992 0.1917877 0.13653798
0.064092524 -0.14445943 0.33466265 0.2540268 0.08365333 0.101299874 -0.033432662 0.21789427
0.13863793 0.00654541 -0.18472801 -0.2701452 0.27693993 -0.29599074 -0.26906922 -0.03913246
-0.07435206 0.28055477 0.31125697 -0.29973188 -0.30266625 0.097214244 0.21725027 0.1467603
0.0820178 0.05616672 -0.01930279 0.13275829 0.026453549 0.091718875 0.28616717 -0.076479256
0.07575772 0.25765148 -0.12514096 -0.2616679 -0.2550512 -0.061290193 -0.09026001 0.1511536
-0.2772987 0.037347093 -0.1934958 0.1346921 -0.019053603 0.16566432 0.12508774 -0.23806426
0.3348208 0.34306923 0.14560336 -0.030217603 0.25440592 -0.11177101 0.002459879 0.2551389
-0.02096945 -0.28641015 0.08591589 0.26218984 -0.28739464 0.110641494 -0.05894083 -0.13544242
-0.05765962 -0.011345726 -0.048602287 0.009216735 0.038826548 -0.08566648 0.08037734 -0.1529404
-0.00094229163 -0.18814835 0.31890756 0.336451 0.15288794 0.008098655 0.084623426 0.21428803
0.15141344 0.2011352 -0.05997084 0.3281141 0.2517738 0.03862356 -0.017142916 0.17887153
-0.09180807 0.24119414 -0.15810773 0.10854779 0.1393935 0.14090681 -0.2537894 0.049859695
0.26538712 0.09830822 0.23445913 0.29872435 -0.0749052 0.1530837 -0.27287298 0.12711461
0.020522427 0.2392858 -0.19330813 0.17907867 0.122590914 -0.17582396 0.2078133 0.3346888
0.3266602 -0.26966137 -0.07267544 -0.12703739 -0.0017124144 -0.31464806 -0.24043214 0.18077761
0.3225109 0.254932 -0.28842476 -0.09293215 0.33858946 0.24796529 -0.13851514 -0.16179056
0.23936889 0.07730529 0.2850783 0.2375758 -0.2379373 -0.1711519 0.26222867 -0.08463195
-0.042394537 0.08662039 -0.20771721 0.36031395 0.099778645 0.2117781 -0.13595434 -0.3088581
0.20733774 -0.051592253 -0.13153617 -0.09702717 -0.04357563 -0.10643317 0.045349076 -0.14815491
0.15632172 -0.16323653 -0.1564113 0.0028260995 -0.058652136 -0.08663347 0.123134576 0.27537563
0.24665289 -0.14097321 -0.011364083 0.30427215 0.26215833 0.27904895 0.27395838 -0.17349201
0.19124205 0.34116504 0.2995026 -0.20260805 0.27211672 -0.14373846 -0.011669863 0.15773739
0.31638607 -0.104704276 0.18914987 0.2026148 -0.30026513 0.21674211 -0.3582205 -0.28691044
-0.22648479 0.12862359 -0.29213092 -0.28849995 0.21862875 -0.33174217 -0.0486201 0.2554352
-0.18171029 0.11673943 -0.1483214 0.29415938 0.30051038 0.0048568198 0.011726957 0.19494787
-0.07065858 0.26748186 0.23087454 -0.14585851 0.11721926 0.10771276 -0.21971683 0.15826204
-0.15655273 0.025433332 -0.1825757 0.3293484 -0.14733507 0.28611284 0.037320074 -0.13375156
0.18639123 -0.10559479 0.20047303 0.08186257 -0.18072666 0.027468953 0.08677333 0.054756727
0.13859318 0.148872 -0.0346515 -0.27438238 0.3347893 0.13118155 -0.12519576 0.2294627
0.20117208 -0.12765433 -0.00946695 0.09459148 -0.26731366 0.2825388 0.32655588 -0.25181937
0.06706413 -0.09217925 -0.27229187 -0.09038237 0.13539895 -0.017172607 0.17327382 -0.2681098
00000000: fb82 70bd da5c 0abe 40e9 84bd 84b7 023d
00000010: b9d8 abbd ee37 41be ff63 443e 9dd0 0b3e
00000020: f142 833d 2ced 13be e758 ab3e cd0f 823e
00000030: 7052 ab3d 4f76 cf3d b0f0 08bd ad1f 5f3e
00000040: 1af7 0d3e e17a d63b 5729 3dbe 7950 8abe
00000050: 12cb 8d3e 198c 97be 71c3 89be 5c49 20bd
00000060: e545 98bd e0a4 8f3e 135d 9f3e 7576 99be
00000070: 12f7 9abe 4318 c73d db76 5e3e 5548 163e
00000080: f3f8 a73d 130f 663d e220 9ebc caf1 073e
00000090: 1db5 d83c 1bd7 bb3d 8184 923e 28a1 9cbd
000000a0: dd26 9b3d e5ea 833e f424 00be 56f9 85be
000000b0: 1296 82be 6d0b 7bbd 3dda b8bd 02c8 1a3e
000000c0: 18fa 8dbe 44f9 183d c323 46be baec 093e
000000d0: 4d16 9cbc e8a3 293e 0017 003e 1ec7 73be
000000e0: a26d ab3e c5a6 af3e 0c19 153e e88a f7bc
000000f0: 7e41 823e 33e8 e4bd ec35 213b 91a1 823e
00000100: 20c8 abbc 5aa4 92be acf4 af3d bf3d 863e
00000110: 6425 93be 0298 e23d f16b 71bd 6bb1 0abe
00000120: 7e2c 6cbd 6de3 39bc 3113 47bd ca01 173c
00000130: 9608 1f3d e871 afbd e09c a43d 699c 1cbe
00000140: 1f04 77ba f6a9 40be da47 a33e 4e43 ac3e
00000150: a88e 1c3e 39b0 043c 0c4f ad3d 526e 5b3e
00000160: 200c 1b3e 63f6 4d3e fca3 75bd 92fe a73e
00000170: 7fe8 803e bd33 1e3d 4d6f 8cbc 192a 373e
00000180: df05 bcbd 99fb 763e fee6 21be 4e4e de3d
00000190: 2bbd 0e3e e049 103e aff0 81be ae39 4c3d
000001a0: d2e0 873e d255 c93d 0e16 703e 66f2 983e
000001b0: e667 99bd f9c1 1c3e 02b6 8bbe 552a 023e
000001c0: a61e a83c 5607 753e 91f2 45be 6660 373e
000001d0: f210 fb3d 320b 34be 02cd 543e 555c ab3e
000001e0: 0140 a73e 0e11 8abe dcd6 94bd 1716 02be
000001f0: 1873 e0ba 8d19 a1be d833 76be c41d 393e
00000200: 2620 a53e 7286 823e 69ac 93be 3653 bebd
00000210: 995b ad3e 9dea 7d3e ead6 0dbe 6dac 25be
00000220: 1e1d 753e 3c52 9e3d c8f5 913e 1247 733e
00000230: d6a5 73be 7242 2fbe d642 863e 8453 adbd
00000240: e5a5 2dbd 0866 b13d d2b3 54be 127b b83e
00000250: bf58 cc3d 5cdc 583e 9d37 0bbe a622 9ebe
00000260: 5850 543e 6652 53bd 6bb1 06be 2eb6 c6bd
00000270: 5c7c 32bd a2f9 d9bd f4bf 393d ecb5 17be
00000280: cd12 203e 7a27 27be 492a 20be 1536 393b
00000290: 393d 70bd e46c b1bd fb2d fc3d 09fe 8c3e
000002a0: 9392 7c3e 485b 10be 6b30 3abc 8fc9 9b3e
000002b0: 9e39 863e 81df 8e3e 4644 8c3e e4a7 31be
000002c0: f5d4 433e 2fad ae3e 6858 993e 7c78 4fbe
000002d0: e252 8b3e 2d30 13be f432 3fbc e985 213e
000002e0: 5bfd a13e 326f d6bd 81b0 413e 417a 4f3e
000002f0: 5abc 99be a5f1 5d3e ad68 b7be ede5 92be
00000300: a1eb 67be e7b5 033e 2f92 95be 44b6 93be
00000310: 37e0 5f3e 1cda a9be df25 47bd 67c8 823e
00000320: 4312 3abe 1515 ef3d 91e1 17be 0f9c 963e
00000330: 7fdc 993e f525 9f3b 6c22 403c 6aa0 473e
00000340: 72b5 90bd 62f3 883e 606a 6c3e ef5b 15be
00000350: a710 f03d 8298 dc3d 73fd 60be 720f 223e
00000360: 5c4f 20be 9059 d03c 20f5 3abe 5aa0 a83e
00000370: 01df 16be 627d 923e efdc 183d 2bf6 08be
00000380: 58dd 3e3e 1542 d8bd cd48 4d3e 90a7 a73d
00000390: 6910 39be 9206 e13c 37b6 b13d 9748 603d
000003a0: 5feb 0d3e e771 183e bbee 0dbd d97b 8cbe
000003b0: 8169 ab3e 7554 063e 5133 00be 45f8 6a3e
000003c0: 0e00 4e3e d1b7 02be 441b 1bbc 2eb9 c13d
000003d0: 56dd 88be eda8 903e 5532 a73e 78ee 80be
000003e0: eb58 893d 7ac8 bcbd d769 8bbe 641a b9bd
000003f0: 06a6 0a3e 91ad 8cbc b16e 313e b045 89be

encoder.0.bias f4 [32]
0.17856929 0.2540373 0.26619995 -0.1051084 0.052211255 0.15085512 -0.035150226 0.2524375
-0.15999746 -0.009564046 -0.0069276937 0.3228421 -0.19662477 0.33382782 0.33558896 0.28403032
-0.23541747 -0.042159695 -0.13692954 -0.11825791 -0.09251204 0.28596196 0.26147538 0.2839147
0.3536121 -0.3592098 0.072136626 0.20242023 -0.13039878 0.08874517 0.01753851 -0.076730974
00000000: deda 363e 2d11 823e 5c4b 883e 1343 d7bd
00000010: 78db 553d c479 1a3e aff9 0fbd 7d3f 813e
00000020: 60d6 23be 84b2 1cbc b501 e3bb 8f4b a53e
00000030: 0158 49be 7beb aa3e 51d2 ab3e 6c6c 913e
00000040: 4711 71be a5af 2cbd 4237 0cbe 3431 f2bd
00000050: f476 bdbd 9b69 923e 1ae0 853e 445d 913e
00000060: a50c b53e 59ea b7be 5ebc 933d 4047 4f3e
00000070: 4287 05be 07c0 b53d ecac 8f3c 2125 9dbd

encoder.3.weight f4 [64, 32, 3, 3]
0.029589143 0.06933459 0.035534684 0.012156952 -0.062489267 0.041560303 0.055721074 0.036816046
0.04188048 0.014679691 -0.03712457 -0.014506153 0.007275172 0.011832958 -0.0021023268 0.030977508
0.00890287 0.057688642 0.0036054547 -0.041528933 -0.07622302 -0.038365163 0.013342308 -0.059957158
-0.014520487 -0.01636581 -0.07298631 0.11179672 0.022589413 -0.045348927 -0.102847286 -0.20501046
-0.16172433 -0.1720563 -0.11127994 -0.0996696 -0.07770533 -0.040155046 0.051914837 0.11190961
0.14229375 0.08563802 0.06483183 0.020898558 0.02937803 -0.07771045 -0.004161512 -0.11526149
-0.06348517 -0.050010912 -0.106740296 -0.02116407 -0.018604865 -0.06638291 -0.023020035 -0.002686942
0.069008544 0.054272693 0.011259923 0.06923197 -0.030301886 0.045116726 0.034534425 0.03190461
-0.039416928 0.07502266 -0.03912687 -0.021931745 0.011034728 0.046215273 -0.052314397 -0.0112283
0.032753304 0.0015661644 -0.032194983 -0.024212142 -0.020447124 0.011508147 0.0241857 0.0028128186
-0.019956565 0.0020641224 -0.007892045 -0.025836525 0.0016674807 0.01188709 0.04704352 -0.04457408
0.0260018 0.0012603346 0.0306495 0.022278598 0.06565427 0.04687056 0.06480403 0.030468948
0.04505493 0.0131168645 0.065240204 0.03859306 0.005871467 0.01504676 0.014722708 0.004406678
0.026533868 -0.028996455 0.05714807 0.00075450476 0.036856484 0.11065428 0.040346347 0.08325873
-0.012382217 0.036880545 0.015305499 -0.051353365 -0.03637032 -0.030615829 0.04795532 -0.014130101
-0.03636987 -0.0134971 -0.013012023 0.04225087 -0.016640538 -0.019520022 0.046279196 0.05517126
-0.0369236 0.049519923 -0.0255475 0.0096822735 0.06286995 -0.019745898 -0.018829068 0.038430333
0.06967764 0.0013811382 0.064450145 0.06335647 -0.03818742 0.013550671 -0.0014373699 -0.038777474
0.10137047 0.06547042 0.04673326 0.058556926 0.11775394 0.025392445 0.033361312 0.06830693
0.045330018 -0.014637236 -0.012659568 0.030755397 -0.018534187 0.023144323 0.024334688 0.02950474
-0.021839343 0.009729474 0.0314543 0.046443556 0.0678543 0.06843061 0.028440839 -0.056101967
-0.067276426 -0.08664315 0.023255156 0.0045181573 0.051605888 0.03155397 0.0016075413 0.052481554
0.05121613 -0.0342869 -0.03781215 0.05601728 -0.04593888 0.00904549 -0.004311376 -0.0101005975
0.045112442 0.051387522 -0.008059105 -0.018285345 -0.007981443 -0.050781284 -0.025085485 -0.03802805
-0.016673401 -0.07560369 -0.04638842 0.056300312 -0.032638907 0.04995914 -0.008193686 0.023516683
-0.033894267 -0.034025077 0.023360826 0.06129165 -0.04677161 0.012956535 -0.0104154255 0.038365
0.05332672 0.015071903 -0.024282027 0.013435196 -0.004940806 -0.00024617405 0.05279466 0.021407217
-0.043417566 0.0073012817 0.019653417 -0.0054541603 -0.03976935 -0.021340812 -0.03952682 0.058238413
0.056052558 0.056906708 0.014836223 0.052290138 0.018788941 -0.017778665 0.004750929 0.032956727
0.017553713 0.09150198 0.05730453 -0.01953361 0.0390817 -0.036681853 0.0045159413 0.038613364
-0.03856086 0.038055357 0.051208425 -0.1141864 -0.09949724 -0.14561841 0.012379488 -0.036952127
-0.0063827205 -0.011713607 -0.04803503 0.020264043 0.055548973 0.027018625 0.0424492 -0.011487747
00000000: ee64 f23c 4bff 8d3d d18c 113d f42d 473c
00000010: bff4 7fbd 233b 2a3d c83b 643d 6ccc 163d
00000020: de8a 2b3d 1683 703c ef0f 18bd 37ab 6dbc
00000030: 9164 ee3b 06df 413c 31c7 09bb 8bc4 fd3c
00000040: 58dd 113c ed4a 6c3d 7e49 6c3b 3e1a 2abd
00000050: d11a 9cbd ca24 1dbd b299 5a3c a395 75bd
00000060: 56e7 6dbc 9711 86bc d979 95bd aef5 e43d
00000070: 6f0d b93c ccbf 39bd 99a1 d2bd 43ee 51be
00000080: 109b 25be 872f 30be bde6 e3bd 931f ccbd
00000090: f923 9fbd 9e79 24bd a7a4 543d de30 e53d
000000a0: 74b5 113e fc62 af3d 8dc6 843d 7433 ab3c
000000b0: 32aa f03c a826 9fbd 4b5d 88bb 370e ecbd
000000c0: 8304 82bd 3ed8 4cbd a89a dabd 4660 adbc
000000d0: 3b69 98bc c3f3 87bd 8394 bcbc 6817 30bb
000000e0: 5a54 8d3d 0b4d 5e3d 8a7b 383c 7ec9 8d3d
000000f0: a93b f8bc 51cc 383d f873 0d3d 69ae 023d
00000100: a573 21bd 7ba5 993d 7f43 20bd 34aa b3bc
00000110: 01cb 343c 3a4c 3d3d 9f47 56bd e7f6 37bc
00000120: 5428 063d c247 cd3a e3de 03bd 8b58 c6bc
00000130: ba80 a7bc ab8c 3c3c 1721 c63c 4457 383b
00000140: f37b a3bc 3a46 073b a34d 01bc 1fa7 d3bc
00000150: 5e8f da3a 12c2 423c b5b0 403d 4f93 36bd
00000160: ba01 d53c d031 a53a a914 fb3c 9b81 b63c
00000170: bf75 863d 58fb 3f3d fab7 843d 049a f93c
00000180: 858b 383d 1ee8 563c a89c 853d c213 1e3d
00000190: 6f65 c03b b086 763c 8337 713c e565 903b
000001a0: 8e5d d93c f989 edbc 1814 6a3d f5c9 453a
000001b0: d3f6 163d b69e e23d 3642 253d 8e83 aa3d
000001c0: c8de 4abc 0e10 173d eac3 7a3c e857 52bd
000001d0: 0bf9 14bd 0cce fabc cc6c 443d f081 67bc
000001e0: 93f8 14bd f122 5dbc 6130 55bc 400f 2d3d
000001f0: bd51 88bc 74e8 9fbc 418f 3d3d 42fb 613d
00000200: 333d 17bd 67d5 4a3d fe48 d1bc 66a2 1e3c
00000210: f6c1 803d 26c2 a1bc 6b3f 9abc 2069 1d3d
00000220: 27b3 8e3d 4f07 b53a 70fe 833d 09c1 813d
00000230: 6a6a 1cbd a203 5e3c 2166 bcba 21d5 1ebd
00000240: 529b cf3d 5b15 863d 606b 3f3d 63d9 6f3d
00000250: fa28 f13d d103 d03c dfa5 083d 81e4 8b3d
00000260: f8ab 393d 04d1 6fbc 146a 4fbc bef2 fb3c
00000270: 02d5 97bc 2a99 bd3c 8a59 c73c edb3 f13c
00000280: 6ce8 b2bc 5f68 1f3c 39d6 003d 993b 3e3d
00000290: 32f7 8a3d 5925 8c3d c3fc e83c 2dcb 65bd
000002a0: 39c8 89bd f771 b1bd 9981 be3c 0d0d 943b
000002b0: b260 533d bc3e 013d 23b4 d23a e6f6 563d
000002c0: 01c8 513d 6c70 0cbd eae0 1abd 6072 653d
000002d0: 682a 3cbd 8933 143c 7146 8dbb fa7c 25bc
000002e0: d3c7 383d b97b 523d 560a 04bc 26cb 95bc
000002f0: 99c4 02bc 0900 50bd 1380 cdbc 4dc3 1bbd
00000300: a896 88bc 1cd6 9abd c901 3ebd 289b 663d
00000310: 60b0 05bd f5a1 4c3d cf3e 06bc 0fa6 c03c
00000320: b7d4 0abd e15d 0bbd 345f bf3c f40c 7b3d
00000330: 9693 3fbd a647 543c 76a5 2abc 9e24 1d3d
00000340: 1e6d 5a3d 25f0 763c 1aeb c6bc 4c1f 5c3c
00000350: 7ce6 a1bb ec10 81b9 373f 583d 305e af3c
00000360: 9ed6 31bd 973f ef3b 3400 a13c d0b8 b2bb
00000370: 30e5 22bd edd2 aebc e0e6 21bd 678b 6e3d
00000380: 5e97 653d 0217 693d a113 733c 2f2e 563d
00000390: 44eb 993c 90a4 91bc aead 9b3b a2fd 063d
000003a0: cecc 8f3c 6465 bb3d 28b8 6a3d f304 a0bc
000003b0: 2214 203d b63f 16bd 76fa 933b 0c29 1e3d
000003c0: fef1 1dbd efdf 1b3d edbf 513d 8fda e9bd
000003d0: 35c5 cbbd fe1c 15be 56d3 4a3c 1d5b 17bd
000003e0: 2426 d1bb 6eea 3fbc 61c0 44bd c700 a63c
000003f0: 5287 633d 2a56 dd3c 36df 2d3d 1a37 3cbc

encoder.3.bias f4 [64]
-0.031435393 0.008129804 0.07656282 0.006134049 0.008893295 0.06032703 0.04283933 -0.027204856
0.015506049 -0.0059167845 0.006555093 -0.0057642977 0.05253776 0.081988655 -0.03088605 0.007857406
0.030352877 0.06833668 0.02241427 -0.019506708 0.01324832 -0.03484194 -0.041941807 -0.00979486
0.025691863 0.001562933 0.0917098 0.06045132 0.037019435 -0.03375675 0.018239764 -0.0279709
-0.01152134 -0.014926597 -0.0044954945 -0.031464312 0.019596372 -0.0138491485 -0.026107626 0.05166741
0.04407931 -0.0007326934 0.007288429 -0.040348697 0.026488772 0.00019899702 0.023151904 0.013945338
0.0036215247 -0.019524932 0.016831953 0.05204235 0.077116 -0.002628092 -0.04470665 -0.042660892
0.026955223 0.047957856 0.006468849 0.012931686 -0.02692626 -0.005112131 0.02744543 -0.013032977
00000000: 66c2 00bd df32 053c f8cc 9c3d 2200 c93b
00000010: 2fb5 113c 7a19 773d 4b78 2f3d b8dc debc
00000020: 150d 7e3c 96e1 c1bb 1bcc d63b 6fe2 bcbb
00000030: d631 573d abe9 a73d be04 fdbc 59bc 003c
00000040: 99a6 f83c 1af4 8b3d 229e b73c 88cc 9fbc
00000050: 7b0f 593c 6cb6 0ebd 2ccb 2bbd 9f7a 20bc
00000060: be77 d23c 54db cc3a 59d2 bb3d ce9b 773d
00000070: b1a1 173d 8544 0abd 8f6b 953c 3b23 e5bc
00000080: 01c4 3cbc af8e 74bc f14e 93bb b9e0 00bd
00000090: 9288 a03c 8ae7 62bc a9df d5bc 35a1 533d
000000a0: 828c 343d 3912 40ba c6d3 ee3b ad44 25bd
000000b0: fbfe d83c dba9 5039 10a9 bd3c fd7a 643c
000000c0: 1a57 6d3b c0f2 9fbc 2ae3 893c 5c2a 553d
000000d0: feee 9d3d 113c 2cbb 521e 37bd 30bd 2ebd
000000e0: 33d1 dc3c 756f 443d a3f8 d33b 6cdf 533c
000000f0: 7694 dcbc aa83 a7bb 3dd5 e03c 4488 55bc

decoder.0.weight f4 [64, 32, 3, 3]
-0.0081913285 0.06334663 -0.038759295 -0.038144905 0.049431156 0.056019444 0.018512728 0.024979513
-0.019776205 0.011112467 0.044866983 -0.010387394 0.03297218 0.041110266 -0.041009534 -0.034782246
-0.05131326 -0.02413284 -0.03280748 0.03706343 0.008970472 -0.0032813745 0.0011887375 -0.034818485
0.047272697 0.003350594 -0.002882054 0.010309345 -0.04249217 0.013667577 -0.0186959 -0.030795291
0.036852375 -0.009155254 0.031503942 0.051447235 0.035676353 -0.037334718 0.06271895 0.052062206
0.03524334 0.06550985 0.026816994 0.008903193 0.05142488 0.017062748 -0.009913664 -0.04901947
-0.037490364 0.030418202 0.07205695 -0.025514323 -0.0026693416 0.06352456 -0.00018184388 -0.024525207
0.008177047 -0.034705915 -0.00079285516 -0.025360458 -0.008261046 -0.022602316 0.019299945 0.042851232
-0.021079917 -0.015287545 -0.018750932 -0.025566412 -0.013766788 0.005921489 -0.01378105 0.09238608
0.03376858 0.0032166506 -0.0025330493 0.03095979 -0.004962669 0.005675273 -0.014610892 -0.005802033
0.050068 0.021558693 0.03466574 0.044432648 0.04601849 -0.0029860085 0.006090934 0.007932964
-0.020973882 -0.039394572 -0.05656395 -0.064721696 -0.041728202 -0.042270377 0.009707319 0.07179396
0.045850977 -0.0015848331 0.025555037 -0.024290161 -0.039836194 0.0068430407 -0.00074652577 0.01891002
0.011321054 -0.014788098 -0.025428796 0.06036711 -0.0049194987 0.0045036413 0.026468603 -0.01201921
-0.022351593 -0.036232267 -0.0057463697 -0.033886448 -0.047137816 -0.030865926 0.019216536 0.038612038
0.009975604 -0.025830269 -0.0043332386 -0.020001207 -0.025984991 0.011749573 0.003956759 -0.03282675
-0.04771493 0.017212074 0.0037652876 -0.024657976 0.020301646 0.061775293 -0.02560323 0.061432306
0.008237907 0.018716224 0.0020051866 -0.011671077 -0.08172022 -0.005869129 0.012898983 -0.036180694
0.022742001 0.008115796 0.04163671 -0.027691327 0.0040027676 0.0369775 0.012687046 -0.0035897421
0.017274931 0.059116814 0.03853843 0.03580452 0.030340321 0.07223991 -0.004106814 0.029564546
0.063801154 0.036109474 0.0065620015 0.036825866 -0.032392 -0.0140700275 -0.0064888606 -0.03883449
-0.058217503 0.03290948 -0.01981786 -0.010829247 0.030525072 -0.022035737 -0.011256563 -0.04435438
0.028106293 0.030126503 0.04137264 -0.037511062 0.03586134 0.015514604 -0.0026729344 -0.054906882
0.018881507 0.009205362 -0.040058807 -0.05327032 -0.015921898 -0.0037257308 -0.013852889 -0.021189949
-0.044772483 -0.038257938 -0.031682525 -0.02669489 0.014212558 0.056157697 0.049228862 0.025574667
-0.036117688 0.062850766 0.049378194 0.05974263 -0.024770461 0.038680773 -0.0215973 0.028111387
-0.02858078 0.020618517 -0.009909399 0.012232412 -0.05546073 0.03740812 0.04174508 0.008558453
0.04501149 0.021019757 0.040514424 0.019592123 0.030546773 0.03580094 0.024084004 -0.033516966
-0.007946439 -0.02746527 0.055514622 -0.034041442 0.07532894 0.07638723 0.080134735 0.042499103
-0.0054765847 0.038184963 0.014573825 -0.011069165 -0.014477283 -0.008338908 0.045894235 -0.018798502
0.05154677 -0.03838555 -0.010299476 0.025461419 0.01632921 0.044505317 -0.026650699 0.03315322
-0.003949622 -0.021136932 0.030552775 0.06369883 -0.042709116 -0.01543937 0.05120647 0.02057284
00000000: ec34 06bc e1bb 813d 11c2 1ebd d53d 1cbd
00000010: 5378 4a3d a574 653d 01a8 973c d6a1 cc3c
00000020: b501 a2bc 1111 363c 71c6 373d e32f 2abc
00000030: d60d 073d 3d63 283d 9df9 27bd d477 0ebd
00000040: da2d 52bd 3cb2 c5bc 2361 06bd d3cf 173d
00000050: e3f8 123c 540c 57bb 69cf 9b3a d49d 0ebd
00000060: 04a1 413d a495 5b3b d8e0 3cbb 87e8 283c
00000070: 450c 2ebd f9ed 5f3c 2528 99bc 6846 fcbc
00000080: 84f2 163d ebff 15bc 470a 013d 56ba 523d
00000090: 5e21 123d 4aec 18bd cb72 803d 2e3f 553d
000000a0: 525b 103d 072a 863d 50af db3c b3de 113c
000000b0: e5a2 523d 2dc7 8b3c ec6c 22bc a4c8 48bd
000000c0: 7f8f 19bd 982f f93c 9892 933d 6a03 d1bc
000000d0: 1ff0 2ebb 2a19 823d 58ad 3eb9 16e9 c8bc
000000e0: 05f9 053c ca27 0ebd 9cd7 4fba bcc0 cfbc
000000f0: 5759 07bc 7e28 b9bc eb1a 9e3c c684 2f3d
00000100: caaf acbc 9c78 7abc 8e9b 99bc a770 d1bc
00000110: 188e 61bc 0d09 c23b eac9 61bc ea34 bd3d
00000120: ec50 0a3d 71ce 523b 8401 26bb 639f fd3c
00000130: e39d a2bb a4f7 b93b 8662 6fbc fb1e bebb
00000140: 1a14 4d3d db9b b03c aafd 0d3d 02ff 353d
00000150: e27d 3c3d e9b0 43bb 7596 c73b 43f9 013c
00000160: 6bd1 abbc 345c 21bd 9aaf 67bd cf8c 84bd
00000170: 31eb 2abd b423 2dbd 720b 1f3c b608 933d
00000180: 3cce 3b3d 2dba cfba cc58 d13c 29fc c6bc
00000190: 472b 23bd 963b e03b 7fb2 43ba 30e9 9a3c
000001a0: f17b 393c c749 72bc 0d50 d0bc 8143 773d
000001b0: bf33 a1bb 4893 933b afd4 d83c 38ec 44bc
000001c0: b01a b7bc 4968 14bd 0b4c bcbb 84cc 0abd
000001d0: 9513 41bd 8ada fcbc ff6b 9d3c a827 1e3d
000001e0: b770 233c 009a d3bc d7fd 8dbb 92d9 a3bc
000001f0: 7ade d4bc 4881 403c b3a7 813b 5875 06bd
00000200: bb70 43bd 5600 8d3c 0bc3 763b 86ff c9bc
00000210: a34f a63c 1708 7d3d ddbd d1bc 71a0 7b3d
00000220: 49f8 063c c452 993c 7369 033b 0c38 3fbc
00000230: ee5c a7bd d351 c0bb 4256 533c 3532 14bd
00000240: 6f4d ba3c 1ef8 043c 418b 2a3d ecd8 e2bc
00000250: a629 833b b875 173d 54dd 4f3c e141 6bbb
00000260: 2884 8d3c 7924 723d 79da 1d3d c3a7 123d
00000270: 448c f83c 85f2 933d 7492 86bb 5931 f23c
00000280: 2eaa 823d 87e7 133d 0f06 d73b b8d6 163d
00000290: 79ad 04bd f985 66bc 82a0 d4bb ea10 1fbd
000002a0: 7a75 6ebd 17cc 063d 1159 a2bc 276d 31bc
000002b0: b70f fa3c 4a84 b4bc 726d 38bc f0ac 35bd
000002c0: 2b3f e63c dbcb f63c 5b76 293d 33a5 19bd
000002d0: 57e3 123d f730 7e3c 662c 2fbb 0ae6 60bd
000002e0: 64ad 9a3c 16d2 163c b414 24bd fb31 5abd
000002f0: a46e 82bc 642b 74bb 3af7 62bc 8b96 adbc
00000300: 5a63 37bd 5bb4 1cbd 89c5 01bd 3eaf dabc
00000310: cadb 683c 9d05 663d 34a4 493d f781 d13c
00000320: 24f0 13bd e7b7 803d ca40 4a3d b0b4 743d
00000330: 6ceb cabc bb6f 1e3d d2ec b0bc da49 e63c
00000340: 3d22 eabc 2ae8 a83c 085b 22bc 746a 483c
00000350: ca2a 63bd 4239 193d e4fc 2a3d c138 0c3c
00000360: f85d 383d a031 ac3c 74f2 253d a97f a03c
00000370: 3a3d fa3c 02a4 123d d14b c53c 1649 09bd
00000380: c831 02bc d9fe e0bc 4d63 633d 0a6f 0bbd
00000390: 0f46 9a3d e870 9c3d ae1d a43d 8a13 2e3d
000003a0: ec74 b3bb d667 1c3d 0dc7 6e3c 715b 35bc
000003b0: 2032 6dbc ea9f 08bc 98fb 3b3d 51ff 99bc
000003c0: b522 533d 2b3a 1dbd 22bf 28bc 7794 d03c
000003d0: d6c4 853c 354b 363d 9152 dabc accb 073d
000003e0: d56b 81bb 5c27 adbc d049 fa3c 8874 823d
000003f0: c1ef 2ebd 69f5 7cbc e0bd 513d 5f88 a83c

decoder.0.bias f4 [32]
0.058506645 0.013610733 -0.011792875 0.0043609156 -0.0022706003 -0.02329919 0.05431074 -0.02048982
-0.05088374 -0.03104506 -0.009591233 0.02282808 -0.049519207 -0.008427266 -0.03357496 0.008284626
-0.052091938 0.01272361 0.043467216 0.04732466 -0.048548132 0.042419642 0.029074684 -0.018195499
0.0018366084 0.0623432 0.040534556 0.014114052 -0.00899269 0.029941304 0.01105323 0.027828975
00000000: aaa4 6f3d 8dff 5e3c e736 41bc 03e6 8e3b
00000010: 5ace 14bb f1dd bebc f074 5e3d 44da a7bc
00000020: 786b 50bd 3652 febc 8c24 1dbc f401 bb3c
00000030: a7d4 4abd 8412 0abc e685 09bd 3dbc 073c
00000040: 5b5e 55bd b076 503c ae0a 323d 81d7 413d
00000050: 68da 46bd 38c0 2d3d 082e ee3c ba0e 95bc
00000060: 5aba f03a 955b 7f3d 9007 263d a03e 673c
00000070: 1356 13bc 7747 f53c 9b18 353c 97f9 e33c

decoder.2.weight f4 [32, 1, 3, 3]
-0.042988013 -0.054748867 -0.05396434 0.3439205 0.032235257 -0.18178348 0.28398237 -0.31202874
0.29047424 -0.22103988 0.2075335 0.25815007 -0.32569695 -0.31732455 0.00032560434 -0.26323915
0.13827567 -0.10852509 0.16933 -0.36325502 -0.21944796 0.059796825 0.201458 -0.2988758
-0.29279256 -0.32277572 -0.047424305 0.10536171 -0.24414451 0.18726757 -0.24729316 -0.023130184
0.0960713 0.051529516 -0.2217111 0.075240895 0.037242852 0.028846435 0.32467833 -0.18530093
-0.12826908 0.30988127 0.06840335 0.26304445 -0.0797899 -0.19195421 0.087437585 0.2176711
0.23660326 -0.23318492 0.14922825 -0.16186291 0.050497584 0.32519406 0.12700303 -0.3087221
-0.19223154 0.19535919 0.2974539 0.09696245 0.123785034 0.29713842 -0.195932 -0.18286103
0.009223784 0.054125786 0.018192396 0.09585076 0.037897363 0.12408322 -0.13916108 0.352584
-0.17930879 -0.045880854 -0.1653032 0.16404156 -0.4514268 -0.071690135 0.20557038 -0.29954427
-0.31588015 0.055153754 -0.09041994 -0.3122458 -0.27476624 -0.14731759 -0.06628231 0.049010172
0.061248444 0.017345972 -0.31724092 -0.059835237 0.19941692 -0.29345846 0.13900903 0.2899494
-0.030347774 0.28730226 -0.14566013 0.15913747 0.3073193 0.08458615 -0.044077292 -0.037106395
0.28170368 0.10543274 0.18256453 -0.11419998 0.2787618 0.16120401 0.23276202 0.11160787
-0.07962738 -0.07015809 0.19775283 0.15998566 0.18308544 -0.3503654 -0.22549927 -0.29397404
0.0011773929 -0.046801493 -0.045553863 0.070641235 0.10874161 0.20686708 -0.16825907 0.23241375
-0.28308496 0.24080032 -0.035719357 0.11116433 -0.07859226 0.24456257 0.012791249 -0.22245604
0.16878684 0.11090429 -0.42044392 -0.45690352 -0.32769948 0.18476342 -0.09116484 -0.21701823
-0.16231984 -0.034939624 -0.22771692 0.17290924 -0.366714 0.28753057 -0.007239535 -0.24128674
-0.05150334 -0.12707457 0.2562818 0.19478361 -0.048446335 0.26907122 -0.07944185 0.31748912
-0.0008793102 0.16724628 0.26828378 -0.16211927 -0.28231028 0.23153721 -0.36200005 -0.32020167
-0.28878605 -0.17069212 0.0142912725 -0.22177804 -0.24787353 0.2980903 0.15043573 -0.051093604
0.18927376 -0.1672132 -0.35416934 -0.24337395 -0.008062698 0.037543643 -0.3794264 0.092198856
-0.02668796 -0.32109714 -0.29796526 -0.13049568 -0.20416655 -0.011823699 0.12153284 0.20228407
-0.14628649 -0.38832414 -0.1692445 -0.14898285 -0.36839467 -0.11860789 0.17163864 0.26310274
0.109583214 0.06840618 0.18045998 0.23337482 0.10748861 -0.0028820287 0.13756587 -0.1739519
-0.08466754 -0.33159697 -0.33548105 -0.3940792 -0.23357339 0.14489804 0.23293506 0.19252378
-0.31676593 0.27816352 0.046801407 -0.03017393 -0.021144833 -0.3120569 -0.32491952 0.16089937
-0.3321755 -0.25189018 0.03372312 -0.24030988 0.22448158 0.354876 0.20130417 0.19001819
-0.14704737 -0.009299691 0.23528452 0.116453655 -0.09935414 0.01296998 -0.028151434 -0.01663475
0.27867728 0.0436071 0.34075284 0.24105358 0.13101329 0.11911687 0.35737678 0.12813279
-0.21408743 -0.1828421 0.036459602 0.027483579 -0.26747945 -0.07420984 0.21134944 0.25381032
00000000: 3314 30bd 5940 60bd b609 5dbd 5916 b03e
00000010: 1e09 043d 7325 3abe 2366 913e 3bc2 9fbe
00000020: 0ab9 943e 4758 62be a983 543e 3f2c 843e
00000030: c0c1 a6be 5d78 a2be e0b5 aa39 48c7 86be
00000040: 2398 0d3e 6742 debd d864 2d3e 90fc b9be
00000050: f7b6 60be 84ed 743d 024b 4e3e 4006 99be
00000060: e8e8 95be dc42 a5be fd3f 42bd e1c7 d73d
00000070: 0501 7abe 12c3 3f3e 6b3a 7dbe 837b bdbc
00000080: 08c1 c43d 9d10 533d 3c08 63be e617 9a3d
00000090: f68b 183d 5c4f ec3c 3d3c a63e 87bf 3dbe
000000a0: f858 03be c2a8 9e3e 0e17 8c3d c3ad 863e
000000b0: e368 a3bd a58f 44be 7a12 b33d 2ce5 5e3e
000000c0: 2048 723e 07c8 6ebe 4acf 183e 64bf 25be
000000d0: 8ed6 4e3d d67f a63e 150d 023e d310 9ebe
000000e0: 58d8 44be 3d0c 483e e14b 983e 4094 c63d
000000f0: 0283 fd3d 8722 983e 66a2 48be ec3f 3bbe
00000100: 5b1f 173c 00b3 5d3d 3808 953c 674d c43d
00000110: 443a 1b3d 581f fe3d 3e80 0ebe e485 b43e
00000120: b99c 37be 90ed 3bbd 3e45 29be 83fa 273e
00000130: 6a21 e7be 47d2 92bd 0b81 523e de5d 99be
00000140: 0bbb a1be e7e8 613d 172e b9bd aede 9fbe
00000150: 29ae 8cbe 6cda 16be 05bf 87bd e4be 483d
00000160: a6df 7a3d 2419 8e3c 676d a2be cb15 75bd
00000170: f333 4c3e 3040 96be 6258 0e3e 3f74 943e
00000180: e59b f8bc 4819 933e ee27 15be eff4 223e
00000190: f558 9d3e 813b ad3d 648a 34bd e0fc 17bd
000001a0: 773b 903e 1fed d73d 32f2 3a3e aee1 e9bd
000001b0: deb9 8e3e aa12 253e 2b59 6e3e ab92 e43d
000001c0: ae13 a3bd 0baf 8fbd b87f 4a3e 48d3 233e
000001d0: c07a 3b3e 1863 b3be 48e9 66be c483 96be
000001e0: c052 9a3a ecb2 3fbd b096 3abd 5aac 903d
000001f0: ecb3 de3d f7d4 533e 1b4c 2cbe dffd 6d3e
00000200: 83f0 90be 5c94 763e 764e 12bd 20aa e33d
00000210: fbf4 a0bd 9c6e 7a3e 6392 513c 84cb 63be
00000220: 75d6 2c3e ca21 e33d 6d44 d7be 42ef e9be
00000230: 3ac8 a7be 9f32 3d3e a2b4 babd 073a 5ebe
00000240: 2c37 26be da1c 0fbd a02e 69be 1f0f 313e
00000250: f0c1 bbbe 3537 933e 9f39 edbb df13 77be
00000260: 2bf5 52bd d61f 02be 5e37 833e 5b75 473e
00000270: aa6f 46bd b4c3 893e 69b2 a2bd ef8d a23e
00000280: 8281 66ba 9c42 2b3e 7e5c 893e 9802 26be
00000290: f98a 90be 1718 6d3e 1258 b9be 79f1 a3be
000002a0: c4db 93be eac9 2ebe f125 6a3c c819 63be
000002b0: 8fd2 7dbe 4b9f 983e d30b 1a3e 8747 51bd
000002c0: fbd0 413e f039 2bbe af55 b5be 0537 79be
000002d0: 6819 04bc 5dc7 193d 2d44 c2be c1d2 bc3d
000002e0: b5a0 dabc d866 a4be e78e 98be a9a0 05be
000002f0: 0911 51be 30b8 41bc 36e6 f83d 8e23 4f3e
00000300: 20cc 15be 6cd2 c6be 6e4e 2dbe f68e 18be
00000310: 3a9e bcbe b2e8 f2bd 0ac2 2f3e 67b5 863e
00000320: 2a6d e03d 8a18 8c3d 80ca 383e cff9 6e3e
00000330: fd22 dc3d 6be0 3cbb 11de 0c3e 7220 32be
00000340: 2d66 adbd 14c7 a9be 2cc4 abbe c0c4 c9be
00000350: dd2d 6fbe 2760 143e 8786 6e3e f424 453e
00000360: 252f a2be 736b 8e3e d5b2 3f3d 512f f7bc
00000370: ee37 adbc ecc5 9fbe da5b a6be cec2 243e
00000380: e812 aabe c0f7 80be 4121 0a3d cb13 76be
00000390: 80de 653e 4fb2 b53e ae22 4e3e 2194 423e
000003a0: 9693 16be bb5d 18bc 6dee 703e 417f ee3d
000003b0: 2f7a cbbd 0a80 543c d69d e6bc 9945 88bc
000003c0: caae 8e3e 5c9d 323d 2877 ae3e c0d6 763e
000003d0: 5928 063e 8cf3 f33d 17fa b63e 3e35 033e
000003e0: bc39 5bbe f63a 3bbe aa56 153d 3e25 e13c
000003f0: 11f3 88be 54fb 97bd fd6b 583e 6df3 813e
