results_autoencoder/autoencoder_2l_64c/model_weights.pth (torch, 599048 bytes, 7 tensors)

encoder.0.weight f4 [64, 1, 3, 3]
000000 0c a8 9a be 88 e4 7d 3e 87 73 d5 bd 7d 1b f2 bd
       -0.30206335 0.24794209 -0.10422426 -0.11821649
000010 1f 3f 44 be b8 8b f9 3d 1a cc 16 3d 5d d6 b2 3e
       -0.19164704 0.12184852 0.03681574 0.3492917
000020 eb e5 c2 3d 2d e4 a0 3e 1f 93 00 be 16 d1 96 3e
       0.095165096 0.31424084 -0.12556122 0.29456395
000030 43 c9 87 be 34 5d 44 3d e1 06 de bd f0 dc cf 3d
       -0.26520738 0.047940448 -0.10841156 0.10149562
000040 23 a9 3e bd 90 aa df 3c 4f eb 3f be fc 7a 88 3e
       -0.04654802 0.02730301 -0.18742107 0.2665633
000050 9b d1 88 3e a2 d7 bf bd de 0d 22 be c6 76 e6 3d
       0.26722416 -0.093673006 -0.15825602 0.11253123
000060 1b e1 03 be a5 c1 f9 3d 31 f3 a7 3c cc 7a 25 bd
       -0.1287884 0.12195138 0.020501705 -0.04040031
000070 c4 a0 b0 bd ff b8 e1 3c 09 77 29 3d 62 35 b8 3d
       -0.086244136 0.027554033 0.041373286 0.08994557
000080 9b d5 af 3d ec ce 4c be 18 0a d1 3d e1 77 32 be
       0.08585664 -0.2000081 0.10207003 -0.17428543
000090 7f ea 8e 3e a1 4e 76 3e 8d ad 55 3d 00 f2 1f 3d
       0.2791328 0.24053432 0.052167464 0.03904915
0000a0 7c 2f 87 3d 4a ff 41 be d1 95 8e 3e 75 36 04 3d
       0.06600854 -0.18945041 0.27848676 0.032278497
0000b0 65 70 84 3e 7d 8e 22 3e d9 47 86 be c9 b4 98 3e
       0.25867 0.15874667 -0.2622669 0.29825428
0000c0 1f 4e 86 bd b5 99 c8 3c 55 d7 04 be e7 c0 0a 3e
       -0.06557869 0.024487356 -0.12972768 0.13550149
0000d0 d9 a0 8d 3e 56 2f 61 be 0f 22 93 be 16 8b f5 3d
       0.2766178 -0.21990713 -0.28736922 0.11989419
0000e0 7f 0e 2c be d3 95 e1 3d e4 ca 9c bd 18 79 9c 3e
       -0.16802405 0.11014905 -0.07655886 0.30561137
0000f0 50 ed 05 3e 79 d7 75 be 10 dc 97 3c 78 f3 b3 3e
       0.13078809 -0.24007978 0.018537551 0.3514669
000100 76 b7 a1 bd 09 35 41 be b8 65 81 bd 3f 5c 14 3e
       -0.078963205 -0.18867888 -0.063182294 0.14488314
000110 c5 53 7c be 38 82 0d 39 f4 b3 b7 3d e6 a6 4a 3e
       -0.2464133 0.00013495318 0.0896987 0.19790229
000120 dc f4 3b 3e 09 2b a2 3e 9e f6 a2 3e 8a 22 69 3e
       0.18355125 0.31673458 0.3182878 0.22767082
000130 42 c8 7b be b0 ff 8f be d1 38 92 bd ef 62 91 3e
       -0.24588111 -0.28124762 -0.07139743 0.28395793
000140 6d 9a b5 3d 81 69 37 3e 0a 59 2d 3e 89 d5 cd 3d
       0.08867345 0.1791134 0.16928497 0.10050494
000150 43 11 38 be 88 a0 87 be 08 10 48 bd fa 23 14 be
       -0.17975335 -0.26489663 -0.048843414 -0.14466849
000160 85 c0 7d 3c 8b 20 8a 3d 34 b6 8f 3e c7 ae a3 bd
       0.015487795 0.06744488 0.28068697 -0.079923205
000170 59 b1 5b 3e ef ee 05 bd 63 6d 57 be 7a 1c 87 bd
       0.21454372 -0.032698568 -0.21037821 -0.06597228
000180 f8 0e 22 3e ec a8 6c 3e 0e 4a 1a 3e ec 6e d4 3d
       0.15826023 0.23111314 0.15067312 0.10372719
000190 2e 4d f1 3c 44 47 9a 3e 54 e4 f6 3d 5f 2d 77 be
       0.029455747 0.30132496 0.12055269 -0.24138401
0001a0 77 dc 53 be 28 67 3c 3e 06 ba 87 bd 51 f1 02 be
       -0.2068957 0.18398726 -0.06627278 -0.12787367
0001b0 a7 07 8d 3e 17 52 8d be f6 53 81 be a1 33 a3 bd
       0.275449 -0.27601692 -0.2525937 -0.07968832
0001c0 d3 c1 d3 3d 70 f0 f2 3d 5a 16 0d 3e ce 57 9d be
       0.103397034 0.11862266 0.13778058 -0.30731052
0001d0 70 f8 bc 3e 0d 8f 36 3e f7 d7 96 be c2 5e 81 3e
       0.36908293 0.17828007 -0.29461643 0.25267607
0001e0 c9 a5 08 be 44 d3 0e be 3b 6e 18 3e 39 08 79 3e
       -0.13344492 -0.13947779 0.148858 0.24319543
0001f0 71 ce 31 3e c4 33 a6 3e 4a 2f 32 bd ec 7e 8c bd
       0.17363907 0.3246137 -0.04350213 -0.06860146
000200 12 a3 63 be c4 74 82 bd eb c6 54 bd b3 bc 7a 3d
       -0.22230175 -0.063699275 -0.051947515 0.061215114
000210 85 db 87 3e 60 1c a1 3e 90 a3 6f be 2c e2 c4 bd
       0.26534668 0.3146696 -0.23402238 -0.09613451
000220 b6 f7 75 bd 09 90 71 3e e7 ac 3e 3e 64 d1 ed bc
       -0.06005069 0.23590101 0.18620645 -0.02903051
000230 68 a9 e8 3d d9 2e 8d 3e a5 2f 8c be d0 36 76 be
       0.11360437 0.27574804 -0.273801 -0.24044347
000240 a7 db a0 3e 9a fd 82 bd 5e 30 9a bd 6d 40 34 be
       0.3141758 -0.06396027 -0.075287566 -0.17602701
000250 dc 53 84 bd fe 6f 71 be e4 56 a6 3e 8c 05 12 3e
       -0.064613074 -0.23577878 0.32488167 0.14259928
000260 4e c6 e2 bd a4 24 b7 3d 18 2d 24 be 0a 15 bd bc
       -0.1107298 0.089425355 -0.16032827 -0.023081321
000270 72 be c0 3d 2b 60 a5 bd f2 61 5f be a7 07 d1 bd
       0.094113246 -0.08074983 -0.21814707 -0.10206538
000280 e8 50 94 3d 29 ed 95 bc c7 60 9d 3e 37 62 b6 3d
       0.07241994 -0.018301563 0.30737898 0.08905452
000290 91 be 27 bd 0d ae 26 3d a3 e0 74 bd ae 66 b8 3d
       -0.040953223 0.04069333 -0.059784543 0.090039596
0002a0 4c fe f2 bc 65 a5 6b 3e ae ab 0c be 2c 98 f9 3d
       -0.029662274 0.23012312 -0.13737366 0.121872276
0002b0 fa 8b 63 3e cc e0 92 be b0 ae ce bd 80 7f 95 3e
       0.22221366 -0.2868713 -0.10091913 0.29198837
0002c0 79 f9 e9 3d d8 ed 79 be 34 f4 9f 3e 5b e7 46 bd
       0.11424536 -0.24407136 0.31241 -0.04856048
0002d0 95 84 49 be 0c 00 7d 3e 6f 69 14 be 9c 83 87 bc
       -0.19679482 0.24707049 -0.14493345 -0.016542248
0002e0 fe 07 b4 3d fd 04 16 3e bc 4f 80 be ea 05 f0 bd
       0.08790587 0.1465034 -0.25060833 -0.11719878
0002f0 bc 4f 97 3d 90 22 14 3e 9b 57 19 3e 52 3d 40 3e
       0.07388255 0.1446631 0.14974825 0.18773392
000300 80 c1 24 be 3e 38 0b be 4f d7 3a bd 01 a2 2b 3e
       -0.1608944 -0.13595673 -0.04561549 0.16761018
000310 54 35 bf bd 92 14 83 be 5e f6 a0 3d 46 c6 07 3e
       -0.093363434 -0.2560163 0.07859491 0.13259229
000320 3c ec 12 3e 33 c8 81 bd 03 a6 a0 3e 5a 46 1a 3e
       0.14347929 -0.06337013 0.31376657 0.150659
000330 30 a4 91 3d b6 61 8a 3e 54 b9 ee 3d 84 a4 a2 3d
       0.071113944 0.27027673 0.11656442 0.07941535
000340 f1 6a 27 3d ca 2d 22 be d2 7b 86 3e e0 86 9c 3c
       0.04087347 -0.1583778 0.26266342 0.019107282
000350 44 26 9b be 0b 29 98 3e 59 15 53 3e d7 d4 cf bc
       -0.30302632 0.29718813 0.20613612 -0.025370045
000360 0a 4a 60 be bf 79 96 3d be 3f 9a 3e 31 fa 58 3d
       -0.21903244 0.0734744 0.30126756 0.052972976
000370 95 4a 85 3d 80 3e 97 3e 3e 24 8b be a0 68 93 3e
       0.06508366 0.2953987 -0.27176088 0.2879076
000380 a0 68 0c be 51 1c c7 bd 56 71 b9 bd 78 9f c4 bd
       -0.13711786 -0.09722198 -0.0905482 -0.09600729
000390 b7 69 17 3e 39 f2 67 be fc 3e 1d be 21 a7 1b 3e
       0.14786421 -0.22650994 -0.15356058 0.15200473
0003a0 29 f8 6d 3e 56 05 17 3e 29 b7 90 3e 94 10 28 bd
       0.23239197 0.14748129 0.2826474 -0.041031435
0003b0 84 13 a9 3e ea 23 e9 3d 87 a6 30 be 5c 50 21 3e
       0.33022702 0.11383803 -0.17251025 0.15753311
0003c0 b7 40 d1 3c b4 9d f0 3d ce 4f 9c 3e a2 5a 41 bd
       0.025543554 0.117488295 0.30529636 -0.047205575
0003d0 21 0e 85 3e d9 0f 88 3d a8 37 a1 3e 09 13 bf 3d
       0.25987342 0.06643648 0.31487775 0.093298025
0003e0 54 e2 5f be d2 16 a0 be fd 9b 45 be 74 1f 12 be
       -0.21863681 -0.3126741 -0.19297786 -0.14269811
0003f0 71 48 9f bc fd 38 0d be a7 29 ad 3e 51 b1 64 3e
       -0.019443722 -0.1379127 0.3382084 0.22333266

encoder.0.bias f4 [64]
000000 ad 15 a5 bd 66 69 5c 3e 5c f1 32 be 3f 60 3b be
       -0.08060775 0.21524581 -0.17474884 -0.18298434
000010 23 b1 41 be 1e 69 95 3e 13 5e 98 3d dc 5b 00 be
       -0.18915229 0.2918176 0.07439818 -0.12535042
000020 68 41 0f 3d c9 10 dc 3d cd a0 cb 3d bb 19 ce 3d
       0.034974486 0.10745389 0.0994278 0.100635014
000030 46 80 5f bd 1c f6 ed 3d eb 15 8b 3e c8 d1 80 3d
       -0.05456569 0.11619207 0.2716516 0.062900126
000040 23 16 da 3d d2 2a b4 bd 9e e9 ca 3c 54 a0 ac be
       0.106487535 -0.0879723 0.0247696 -0.3371607
000050 6d c8 2f 3e 44 da 47 3d 80 0b 86 3e 2e e3 77 be
       0.171663 0.04879214 0.2618065 -0.24207756
000060 98 a5 4e be d3 62 7c 3d 6d b3 88 3e a7 8f 5a 3e
       -0.20180357 0.061617684 0.2669939 0.21343862
000070 e2 10 e0 bc 8e 5b 3e be ef db 89 3e 73 a3 13 3b
       -0.0273518 -0.18589613 0.2692561 0.0022527843
000080 58 71 8d 3e 3b ed 61 3c 2f e2 df bd 84 a5 8f be
       0.27625537 0.01378947 -0.10931813 -0.28055966
000090 fe bc 31 3e 90 c3 8f 3d 79 44 66 3e e3 25 93 3e
       0.17357251 0.070197225 0.22487058 0.28739843
0000a0 71 b0 ac 3e de de b3 be b5 21 92 be 3c 08 94 3e
       0.33728364 -0.35130972 -0.2854134 0.28912532
0000b0 3b e0 89 3e 85 7a a3 3e ac 0b 65 3e 48 5b 38 be
       0.26928887 0.31929412 0.22367734 -0.18003571
0000c0 ea b9 48 3d 9e 3f cd bb c7 74 11 3e 09 ee 44 3e
       0.049005426 -0.0062636873 0.14204703 0.19231428
0000d0 9b bb f7 3d 65 aa 8c ba 55 64 33 be 2c 6b 95 bd
       0.1209633 -0.0010731934 -0.17518742 -0.07295832
0000e0 3a 01 0d 3c 7b 4f 95 be dd e9 49 3e 46 ae a4 bd
       0.0086062495 -0.291622 0.19718118 -0.080410525
0000f0 c5 87 52 bc 79 d8 49 bb de 1f a6 3e a8 4b 9f be
       -0.012849753 -0.0030799194 0.32446188 -0.3111241

encoder.3.weight f4 [128, 64, 3, 3]
000000 2d 26 22 3d 3b f1 0e be 9e e3 31 bb fa ee a5 3d
       0.03958719 -0.1395921 -0.0027143727 0.08102222
000010 53 fb 3c bc fa 75 77 3d 50 43 d7 bc 2f da e0 bc
       -0.01153453 0.060415246 -0.026277214 -0.027447788
000020 4c 4e 06 3d 40 20 29 3d 82 6c cd bb 71 97 44 3d
       0.032789513 0.04129052 -0.0062690387 0.04799599
000030 cd 33 84 b9 ce 63 f9 3c f3 be f6 bc 27 eb 01 3d
       -0.00025215597 0.030443098 -0.030120349 0.0317184
000040 1c 43 c1 3c 8f 96 f9 bc 24 24 10 bd d9 6f a3 bd
       0.02359157 -0.0304673 -0.035190716 -0.079803176
000050 39 a7 44 bd d1 bb 14 bc 6c 96 61 be 04 f9 b3 bb
       -0.04801104 -0.009077982 -0.22030038 -0.0054923315
000060 8f 1a 56 bd 86 24 1e be 52 fd 3f bd 9c 20 18 bc
       -0.052271422 -0.1544362 -0.046872444 -0.009285118
000070 33 88 7d 3a d0 b4 1c 3c c0 d3 f4 3b 87 18 cd bb
       0.00096714793 0.009564593 0.0074715316 -0.0062590274
000080 bd 1d 9d bc d8 72 47 3c 63 95 22 3b 0a a0 1e bc
       -0.01917922 0.012173377 0.002480828 -0.009681711
000090 77 21 11 3d 3f 67 e1 bc 58 d8 59 3c 1b 33 9a 3c
       0.035432305 -0.027515052 0.013296209 0.018823197
0000a0 48 c6 03 3d 60 d6 e9 bc 11 82 18 bd 2d c8 ad 3c
       0.032171518 -0.028544605 -0.037233416 0.021213615
0000b0 5c 1d e3 3c e9 50 0f 3d 62 f1 4c bc 72 8c 02 3d
       0.02772396 0.03498927 -0.012508722 0.03187222
0000c0 85 7e d8 bc 59 4f bc 3c a3 d9 95 bb 5d a3 d7 3b
       -0.026427517 0.022987055 -0.0045730635 0.0065807537
0000d0 0f 08 e3 3c 51 dd e2 bc ed a3 a8 3c f0 84 1e 3d
       0.027713804 -0.027693423 0.020585978 0.038700998
0000e0 74 db d5 3b 68 92 00 3d 3b 45 89 bc 4b b3 4f 3d
       0.006526405 0.031389624 -0.016756644 0.050708096
0000f0 ae b9 6b 3c 63 23 d6 bc 5d 32 e0 3d 89 db 5c bc
       0.014387531 -0.02613992 0.10947106 -0.013480076
000100 66 6d 1e be fb 14 ca bd 32 99 3a 3d 9f 24 ed bc
       -0.1547142 -0.09867283 0.045556255 -0.028948126
000110 61 99 fb bd c3 c0 43 3b 34 eb aa bd 20 bd 0a be
       -0.12285114 0.0029869534 -0.08345643 -0.13548708
000120 63 ec 0e 3d 15 ea 95 3c ba b7 d5 3c b1 65 2a 3d
       0.034893405 0.018300096 0.026088584 0.041600887
000130 a7 64 aa 3c 1b d3 16 bd 04 8f 8c 3b 1e ae 18 bb
       0.020799948 -0.03682242 0.0042895097 -0.0023297141
000140 82 b1 0d bd 4c 75 13 3b c7 8c 92 3d 46 6a 86 3d
       -0.034593113 0.0022500334 0.071557574 0.06563239
000150 50 2b 9f 3d 27 d1 a2 3d e7 78 85 3d ca 55 7f 3d
       0.07771933 0.07950049 0.06517201 0.062337674
000160 5f 4c 9d 3d ce 8d 8f 3d ca 17 b0 3c fd 1e c4 3b
       0.07680582 0.07009469 0.021495719 0.0059851394
000170 d6 f2 18 3d e6 8d f5 3c 00 33 63 3c dd 83 9d bc
       0.03734096 0.029974889 0.01386714 -0.019227916
000180 8f 7a 11 3d 52 f8 25 bd 1a dd 68 3c a7 5e a4 bc
       0.03551727 -0.04052002 0.014212871 -0.020064665
000190 ee 0b d1 ba 3b 6a ca 3c c0 66 19 3d 8b ba e9 3a
       -0.001594899 0.024708858 0.037451506 0.0017832083
0001a0 82 dc 1c 3c 43 20 93 3c dd 50 0a 3b a5 39 60 bb
       0.0095740575 0.01795972 0.0021105327 -0.0034214046
0001b0 bd c9 66 bd 87 c9 c4 bc e5 79 6e 3d 3a bc 1d bd
       -0.056344736 -0.024021877 0.058221716 -0.038509585
0001c0 10 c2 21 3d 1e 28 88 3d d4 1a 10 3d 18 e7 86 3d
       0.039491713 0.06648277 0.035181835 0.065870464
0001d0 aa b2 ff 3b 67 d6 2c 3d 91 c1 a6 3c 3a 9a 1d 3c
       0.007803281 0.042196658 0.020355972 0.00961929
0001e0 88 6a 09 3c b2 cc 03 3d 89 46 1e 3c b7 a9 78 bc
       0.008387215 0.032177635 0.009660372 -0.015177182
0001f0 21 39 53 bc 03 29 16 bd 21 84 bb 3c b2 42 09 3c
       -0.012892039 -0.036660206 0.022890152 0.008377718
000200 85 59 27 bd b9 cc c4 b9 ce 71 a6 3c f3 86 c8 bc
       -0.040856857 -0.00037536563 0.020317938 -0.024478411
000210 37 ce c7 bc 2e 00 0c bd 3f 66 3d 3c 3f 18 ef bc
       -0.024390323 -0.03417986 0.011560022 -0.029186366
000220 81 05 05 3c b8 7c 9a 3c 5e 6a 16 3d 7c c0 10 bd
       0.008118988 0.018858299 0.036722533 -0.035339817
000230 ff 89 ee bc 93 d3 8b bb 1d a8 b8 3b 7a 21 45 3d
       -0.029118536 -0.004267165 0.005635275 0.04812763
000240 4e 57 37 3d 6a 1e 76 3c 94 a6 10 3d 24 58 aa 3b
       0.044760995 0.0150219 0.03531511 0.0051984955
000250 77 b3 5e 3b b9 b7 00 bc 5b a4 df bc 35 52 c4 3c
       0.003398148 -0.007856303 -0.02730005 0.02396498
000260 72 f9 e4 3b af 26 bb 3c 44 a6 03 3c e9 28 ca 3b
       0.006987744 0.022845594 0.008035246 0.0061694277
000270 e1 41 bc ba e8 1a c5 3c 53 9b 9e 3c d1 a8 6a bc
       -0.0014362895 0.024060681 0.019361174 -0.0143224755
000280 bc 1f fe 3b 47 c9 b5 3c 2c 5c 13 bd bf 5c 29 bc
       0.007755248 0.022190703 -0.035976574 -0.010337054
000290 52 00 01 3d 52 55 22 bb 65 a9 ca bc f7 1c 9f bc
       0.031494446 -0.0024770093 -0.024738977 -0.019422991
0002a0 b7 8c c2 3c 4d 65 52 bc 7a 30 07 3d c3 03 02 be
       0.023748739 -0.012841535 0.033005215 -0.12696747
0002b0 6c df ce bd 07 28 26 be fb da f6 bd 46 ba 06 be
       -0.10101208 -0.16226207 -0.12053486 -0.13156995
0002c0 fc 19 62 be ba 56 43 be 52 25 0e be 7c 67 da bd
       -0.22080225 -0.19076052 -0.13881424 -0.10664269
0002d0 de 7c 03 3d 61 f6 98 3c 46 10 35 3d 67 5d a5 3c
       0.032101505 0.01867217 0.044204973 0.02018614
0002e0 29 64 12 bd 62 3b 55 3c 0d 57 7a 3c 92 05 88 3d
       -0.03574005 0.013014646 0.015279544 0.066416875
0002f0 4b d1 37 3d f9 3c 49 3d 63 f4 6c 3d dc 0a a6 3d
       0.04487733 0.049130414 0.057850253 0.0810754
000300 41 22 84 3d 8b a6 26 3d e9 52 05 3d 93 f5 65 3d
       0.06451846 0.04068617 0.032549772 0.0561424
000310 77 a3 5c 3c 13 5f 8c 3d eb ff 0a bd 40 84 86 bc
       0.013466707 0.068540715 -0.03393547 -0.016420484
000320 1b 58 27 bd 0d b3 d5 3c 58 c1 c0 bc 7f 2c 22 3d
       -0.04085551 0.026086355 -0.023529693 0.039593216
000330 42 f1 a9 bc 98 96 7f ba 58 7e b7 3c c2 58 08 bd
       -0.020744924 -0.0009749918 0.022399113 -0.03328777
000340 57 8e ae 3a 84 f3 aa ba 8f 03 06 bd e6 6c 01 bd
       0.0013317567 -0.0013042544 -0.032718237 -0.031597994
000350 19 8a 1f bd 9f 82 62 bc ce 01 b3 bc 4b 48 f8 bc
       -0.03895006 -0.013825088 -0.021851446 -0.03030791
000360 2d f5 6e 3c bf d5 10 3d 04 77 a0 3b 3d 4b c6 3c
       0.014584822 0.035360094 0.0048970003 0.024205798
000370 f1 a1 b7 3b 21 46 d8 bc 3e 40 f5 3c e1 a2 c6 3c
       0.0056040217 -0.026400628 0.02993786 0.024247589
000380 cd a9 20 bb fa 3b 68 3d fb f8 ec bc b9 16 53 3d
       -0.0024515272 0.056697823 -0.028927317 0.051535342
000390 55 96 a9 3c 33 7c 07 3d 4f 89 c7 3d 8f 63 24 3d
       0.020701567 0.03307743 0.097429864 0.04013401
0003a0 54 38 6f 3d 2f fc 93 3d 1e 01 2e bc f5 76 1f bd
       0.058403328 0.072258346 -0.010620384 -0.038931806
0003b0 07 a2 80 bc f0 40 b2 3c 9e 05 2c bc 48 9e f0 bc
       -0.01570226 0.02175948 -0.010499386 -0.02937235
0003c0 40 3a 68 bc b3 cf 16 bd 3c 2a d5 bc ea b3 89 3d
       -0.014174044 -0.03681917 -0.026021115 0.06723769
0003d0 a3 73 5f 3d c0 47 80 3d 48 91 4f 3d 09 b6 2d 3d
       0.05455364 0.06263685 0.05067566 0.04240993
0003e0 3c c7 8d 3c d3 83 2c 3d 28 bf 7d 3d 90 6f ad 3d
       0.017306916 0.042117905 0.06194988 0.084685445
0003f0 58 e8 80 bc c3 29 9c 3d e4 a0 9c 3b 59 b5 77 3c
       -0.01573579 0.07625153 0.004779922 0.01511892

encoder.3.bias f4 [128]
000000 5f 94 b8 bc bb ad 58 3c 5f 25 ea 3b f6 3f 0b 3c
       -0.022531686 0.013225014 0.0071455683 0.008499136
000010 cb a5 da 3b df f3 2e 3d f7 a1 13 3d e6 8c 17 3b
       0.006672596 0.042713042 0.036043134 0.0023124753
000020 3f f5 44 3c e9 46 37 3d 28 37 d3 3c d8 29 0b 3d
       0.012021362 0.04474536 0.025783136 0.033975452
000030 e1 a5 1e 3d 81 0b e7 bc d9 08 24 bd 1f a4 34 3d
       0.038732413 -0.028203728 -0.0400475 0.04410183
000040 1c 28 65 bc 41 1a c7 3c 98 7b 1b 3d 80 cd 79 3b
       -0.013986614 0.024304511 0.037959665 0.0038116872
000050 f7 b8 89 3c b4 31 39 bc 6e 38 be bc f8 55 eb bc
       0.01681183 -0.011303354 -0.023220267 -0.028727517
000060 44 36 f9 3c 6a e3 9b 3c c1 a2 cd 3c 77 27 d6 3c
       0.030421384 0.019029338 0.025102021 0.026141865
000070 b6 8b d4 bc a7 08 2c 3d df dd 78 bc ce d6 f5 3c
       -0.025945526 0.04200044 -0.015189617 0.030009653
000080 4c d6 dc 3c 54 37 ea bc fb 4f f4 bc c7 33 88 3c
       0.026957653 -0.028590836 -0.029823294 0.016626252
000090 65 e1 82 3d d3 93 2c 3d 2d 15 02 3d 5a 7b a2 bb
       0.06390647 0.042133164 0.031758476 -0.0049585523
0000a0 c8 8a 19 3d c5 08 84 3c c2 42 5d 3c e1 6c 94 bb
       0.037485868 0.016117463 0.013504686 -0.004529581
0000b0 56 d2 eb 3c f2 41 2b 3b 37 b7 f2 3c fe 4b f3 bc
       0.02878682 0.0026131836 0.02962838 -0.029699322
0000c0 a7 15 0b 3d 4c 7f fe 3c dc ac 11 bc 26 4e e2 bc
       0.033956196 0.03106656 -0.008891311 -0.027625155
0000d0 31 7d cf 3b 7f 5f a1 3c d8 cb 21 3d ba 64 49 3c
       0.0063320627 0.019698856 0.03950104 0.0122920815
0000e0 b1 7b 1f 3b 07 19 d8 bb 67 f3 07 bd 69 18 1e 3d
       0.00243352 -0.0065947804 -0.03319111 0.038597498
0000f0 8b 7f 92 bb 62 9c 2e 3d b1 a4 81 bc 6a 14 99 3b
       -0.0044707707 0.042629607 -0.015825601 0.004671623
000100 6b cf 1b 3d a5 31 7f 3c d9 27 42 bb 53 e7 d6 3c
       0.038039606 0.015575801 -0.0029625802 0.02623335
000110 50 74 e8 3c 03 c8 63 bc 7b 0d 33 bb b9 74 3f 3b
       0.028375775 -0.013902667 -0.0027321267 0.002921386
000120 b2 a7 c6 bb b7 54 7d bc 19 6c 08 3d b1 a1 b5 bb
       -0.0060624713 -0.015462092 0.033306215 -0.0055429568
000130 f8 0d 24 bc c6 4c cf 3c af 2b 1a 3d 0a 39 4a 3c
       -0.010013096 0.025305163 0.037639316 0.012342701
000140 79 e2 25 3d b6 a9 95 3a cd 68 53 3c 00 16 bc 3c
       0.040499184 0.0011418376 0.012903404 0.02295971
000150 ae d3 24 3d 4b 76 9e bc 16 7e ef 3c fa 05 5a 3c
       0.040240936 -0.019343516 0.029234927 0.013307089
000160 14 5e b9 bc c0 94 48 3d e0 92 19 bb 63 ab 25 bc
       -0.022627868 0.048969984 -0.0023433492 -0.010111663
000170 72 48 14 bd 8a dc c4 bc 01 a8 fb 3c ed cd a6 3c
       -0.0362019 -0.024030942 0.030719759 0.020361865
000180 28 7c 4f 3c 8d a1 2e bb 58 5c c4 3a 1e 42 84 3b
       0.0126638785 -0.0026646585 0.0014981134 0.004036202
000190 54 2e 13 3d fb 57 b0 bc 3f 6e 33 bb 07 4d b8 bc
       0.035932854 -0.021526327 -0.0027378944 -0.022497667
0001a0 f1 18 2d 3b ad 91 b6 bc c5 0f 1a 3d fd 9e 1b 3d
       0.0026412571 -0.02228626 0.037612695 0.03799342
0001b0 d6 83 16 3d 94 60 9e 3c bf 67 26 3c af 7b 19 ba
       0.036746822 0.019333161 0.010156571 -0.0005854917
0001c0 81 43 f2 bc 20 5f 69 bc 90 f3 f1 3c 11 3c 8a bc
       -0.029573204 -0.014243871 0.029535085 -0.016874345
0001d0 f8 06 bc bc f6 c5 06 3d 89 c3 4a 3c a9 a1 98 3b
       -0.022952542 0.032903634 0.012375721 0.0046579433
0001e0 9e 67 d8 bc 97 79 cc bc 37 df 0b 3d e7 ba 13 bc
       -0.026416596 -0.024960322 0.03414842 -0.009016729
0001f0 eb 32 62 3d c8 6e e1 3c 3e 43 59 3d ed a4 9c bc
       0.05522434 0.027518645 0.053042643 -0.019121611

decoder.0.weight f4 [128, 64, 3, 3]
000000 c9 1c 80 bd 2f bb 68 3c 95 fe 79 3d 32 e9 17 3c
       -0.0625549 0.014204784 0.061033804 0.009271907
000010 9b 2a 11 3d 6e 9b a3 3c 5a fc 2a 3c 94 5f 76 3c
       0.035441022 0.019971576 0.010436142 0.015037436
000020 59 8d 06 3c 0b 58 2b bd e5 d3 23 bc 2e 5d 20 bc
       0.008212411 -0.04183201 -0.00999925 -0.009787841
000030 d3 58 0f bd c5 2a 85 bc 95 d7 b9 3c 9a c9 b1 bb
       -0.03499682 -0.016255746 0.022685805 -0.005425644
000040 b7 3f 2e bd 8c 06 1c 3c a5 c4 d9 3b 56 25 95 3b
       -0.042541232 0.009523045 0.0066457563 0.00455157
000050 7d 82 6b bd f0 e5 3b bd 4f 4a f2 bd 14 e2 ea 3c
       -0.05749749 -0.045873582 -0.118305795 0.028672256
000060 bd aa 35 3c 48 4a ae 3c a1 cd 9f 3b 65 ab be 3c
       0.01108807 0.021275654 0.004876808 0.023275087
000070 4c 27 b4 3c 72 2e f0 bc 0d 10 89 bd 60 8e e9 3c
       0.021991394 -0.029319022 -0.066925146 0.028510273
000080 71 04 85 bd 07 13 63 bd 02 42 ff 3b 76 8e 45 bc
       -0.06494988 -0.055438068 0.007789851 -0.012057891
000090 ad 32 c0 3b 72 33 b8 bc e5 06 0b 3d d9 ca 08 be
       0.005865416 -0.022485469 0.033942122 -0.1335863
0000a0 e5 3e 95 3b 22 86 ce 3d 15 27 8a bb de f8 1d 3c
       0.0045546168 0.100841776 -0.0042160847 0.009641854
0000b0 2f 3d 6d 3c 21 99 94 bd 61 55 bd bc 8d 58 9b bd
       0.014479919 -0.072557695 -0.023112 -0.07585249
0000c0 c6 63 c2 bb ce 0d 95 bb 47 23 3f 3c 03 66 92 bd
       -0.005932304 -0.004548765 0.011666126 -0.071483634
0000d0 5d 54 54 3c 8c c9 0a bd 2f fd 52 3d d0 70 b5 bc
       0.012959567 -0.033883616 0.051510986 -0.02214852
0000e0 e5 bb 65 3c 01 b9 0e 3d d8 ff eb 3c d7 34 e7 3c
       0.014021848 0.034844402 0.02880852 0.028223438
0000f0 b9 ce d2 3c 35 0a d7 bc 67 ae 94 b9 81 d1 18 3b
       0.025733339 -0.026249984 -0.000283587 0.0023318233
000100 e6 b5 48 3d 5e 22 b2 3c 99 6d 99 bc e8 6d b9 3b
       0.049001597 0.021744903 -0.018729018 0.005658854
000110 16 79 8f bc df ca cd 3c f7 74 9b 3c a9 90 d4 bb
       -0.017513793 0.02512115 0.018976672 -0.0064869714
000120 3d db 6f 3d c5 3a 96 3c b2 6c 62 bb 0f 32 3d 3d
       0.05855869 0.01833857 -0.003454965 0.046190318
000130 14 ee aa 3d 82 4b fd 3b b4 e7 38 3d fd 37 5a bc
       0.08346191 0.0077299485 0.045142844 -0.013319013
000140 eb 62 95 bd 78 10 c0 3d 7c 51 35 3d f8 f9 80 3d
       -0.07294258 0.09378141 0.044267163 0.06297678
000150 02 16 c5 3c 84 b6 ff 3c 20 60 16 3d 95 86 37 3d
       0.024058346 0.03121496 0.036712766 0.04480608
000160 e3 92 a6 3d bd 44 e2 3c 0f 6d 69 bc b2 30 6c bd
       0.08133485 0.027620668 -0.014247193 -0.057663627
000170 ff 96 35 bd c8 ea bf bd cf 6e d1 3c cc 77 19 3d
       -0.044333454 -0.09370953 0.025565533 0.037467763
000180 e7 7b 4b bd 1a 0d 15 bd e1 d5 76 bc ae bc a8 bc
       -0.04967871 -0.036389448 -0.015065641 -0.020597782
000190 b1 e3 df 3c 7c 85 a3 3b a7 5e 3c bd 1c d7 1d bd
       0.027330251 0.004990278 -0.045988705 -0.038535222
0001a0 5e 06 13 3d 88 6d f4 37 bb bb 23 bb 6f 09 e7 3c
       0.035894744 2.9138071e-05 -0.0024983722 0.02820274
0001b0 41 7f b1 3c 90 5d 18 3d 73 0b 7c 3c 5d 95 ce bc
       0.021667125 0.037198603 0.015383589 -0.025217706
0001c0 c7 40 46 bd 14 be b4 bc c1 1b c1 bc 26 ae 86 3c
       -0.04840162 -0.022063293 -0.023572804 0.016440462
0001d0 8b b9 df bc ec b4 d9 3c cc f5 99 3c ba 28 93 3d
       -0.027310153 0.026575528 0.018793963 0.07185502
0001e0 3f 26 f5 bb d8 54 88 bc 5f 2d ba bc c3 92 8c 3d
       -0.007481366 -0.01664202 -0.022726713 0.0686393
0001f0 af 4c ab bb 15 bd 5f 3d 21 00 78 bc 5d 09 da bc
       -0.0052276473 0.054623682 -0.0151367495 -0.026615793
000200 42 80 10 3d f8 45 5d bc f3 62 db 3c 5c 5c 25 3b
       0.035278566 -0.013505451 0.026780581 0.0025232052
000210 3b 77 0b bb 3e 43 50 bb 32 53 e3 bc 9d d5 4b 3d
       -0.0021280784 -0.003177836 -0.027749632 0.049764264
000220 ef f0 25 3c f0 3b 94 bc 71 05 e0 bc 78 d9 11 3d
       0.010128244 -0.018094987 -0.027346345 0.035607785
000230 8f 9c fc 3b ab 5b 4d bc 8b a8 eb 3c 12 17 e7 3c
       0.007709093 -0.012534062 0.028766891 0.028209243
000240 74 62 80 3d e6 9c bc 3c 45 75 1a bc 1c 06 41 3d
       0.062687784 0.023024034 -0.009427373 0.047124967
000250 4c 51 8a bc 9a 16 00 bc cd 21 50 3d 82 44 4e bc
       -0.016884468 -0.007817889 0.050813485 -0.012589576
000260 9c 5b d7 bc 29 4b 5c bb aa 4d 6a bb 59 37 66 bd
       -0.0262888 -0.0033614135 -0.0035751858 -0.056205127
000270 81 2f 8d 3b f3 17 2a bc 9f e8 9d bc ba c4 f5 bc
       0.0043086414 -0.0103816865 -0.019275961 -0.030001033
000280 49 f2 44 3d 86 25 5a bd 9c c2 d2 3c f1 eb 4d bd
       0.048082624 -0.05325844 0.025727563 -0.05027384
000290 67 5a 17 bc 06 58 69 bc a2 2b 70 bc 64 63 66 bc
       -0.009237862 -0.014242178 -0.01465884 -0.0140617825
0002a0 1e dd 8e bb 54 05 90 bd 86 ea 8e bc a6 fd b2 3c
       -0.0043598553 -0.07032266 -0.017445814 0.021849465
0002b0 dd 4d cd 3b a5 36 86 bc b4 7d a8 3b d9 e6 08 3d
       0.0062653855 -0.016383478 0.005141938 0.03342328
0002c0 7b 42 89 3c 55 ac 16 bc 41 51 01 bc a8 ae 20 bc
       0.016755333 -0.009196361 -0.007892908 -0.009807266
0002d0 87 e1 ec ba f4 2a 30 bd c8 a8 0d bd d9 b8 2c bb
       -0.0018072583 -0.043009713 -0.03458479 -0.0026355295
0002e0 c9 19 4a 3c a3 0c 9b 3c 8f 2d 26 3d f9 01 1a bd
       0.012335249 0.018926924 0.04057079 -0.037599538
0002f0 e5 2d 45 3d cb d8 d4 3c d2 19 84 bd 55 d9 11 bd
       0.04813947 0.025982281 -0.06450237 -0.035607655
000300 df 48 38 bd 32 14 83 3c 24 2e 9e bd 62 9e 20 bd
       -0.04499137 0.01600084 -0.077236444 -0.039213546
000310 8d 03 36 bd e9 03 2d bd ad 98 a1 bc d1 8b af bc
       -0.04443698 -0.042240057 -0.019726122 -0.021428974
000320 53 03 e8 bc 50 41 a3 3c f1 d9 d3 3b 67 d6 22 bd
       -0.028321898 0.019928604 0.0064651896 -0.03975525
000330 36 78 60 3c aa 10 d6 3a af 69 14 bd 64 42 18 bd
       0.0137005355 0.001633187 -0.0362336 -0.03717269
000340 fc ca af bc 56 9a 6e 3c 41 2b c1 bb 78 73 05 bd
       -0.021459095 0.014563164 -0.005895049 -0.032580823
000350 10 6e 19 bd 68 2a fd bc e6 2f 04 3d d4 2b 27 b9
       -0.03745848 -0.03090401 0.032272242 -0.00015942688
000360 40 cf 42 3d ae 76 cd bc 23 e7 cf 3c 28 fa ed 3c
       0.04756093 -0.025081005 0.02537877 0.029049948
000370 f8 7a 17 3b 6b 65 ba 3c 7f 1a 06 bd f2 e6 3b 3d
       0.0023114067 0.022753438 -0.032740112 0.045874543
000380 27 16 3f bc 0c ed b5 bd c6 32 8d 3c 39 0e 3f bd
       -0.011662996 -0.08883104 0.017236125 -0.046644423
000390 6d 9d fa bc e2 32 c8 bc c6 fd d6 3c b0 3c 62 3d
       -0.030592645 -0.024438325 0.026244055 0.055233657
0003a0 07 0e fe bc c9 a6 c1 bc 30 bd 82 3c 0a 93 d8 3c
       -0.031012548 -0.0236391 0.015959352 0.026437301
0003b0 bb 19 da 3a ca 44 0d bd a0 2b c7 b9 73 15 91 bc
       0.0016639748 -0.03448943 -0.0003798874 -0.017710423
0003c0 d2 f1 ac bb cd fc 1c 3d 47 0d 3f 3d 7f 1f e9 3c
       -0.0052778507 0.038327027 0.04664352 0.028457401
0003d0 6b 2a d4 bc e8 12 94 3c 6a e4 41 3d db ac fc 3c
       -0.025899133 0.018075421 0.047336973 0.030844143
0003e0 d1 ef 2a 3a c2 a8 b1 bc 8e 4e 82 bc 08 4d fe 3c
       0.0006520721 -0.021686915 -0.015906598 0.03104259
0003f0 ea 69 be 3b c9 d2 0f bd d9 c6 37 bc da ea aa bd
       0.005810966 -0.03511313 -0.011216843 -0.08345576

decoder.0.bias f4 [64]
000000 57 74 c0 3c 48 91 35 bb 90 c6 84 3c ce b2 26 3c
       0.023492975 -0.0027705003 0.016207963 0.010174466
000010 21 5f 98 bc 06 b7 ab bb 26 d1 04 3d 8a 29 81 3a
       -0.018600048 -0.005240324 0.032426022 0.0009854299
000020 54 7b 92 bc 6e 8f 0b 3c a2 b8 9b bb ac 19 de 3c
       -0.017881073 0.008518083 -0.0047522346 0.02711185
000030 e0 ff 06 3d d6 6c fb 3c e0 99 ce bc f3 e9 cd 3a
       0.032958865 0.030691545 -0.025219858 0.0015709981
000040 9e 08 ef 3c 63 52 cf bc c6 6a 00 bb 2c 9a a9 3c
       0.029178914 -0.02530784 -0.0019594892 0.020703398
000050 7e 38 8e bb 77 be 0d 3c 74 dd d0 3c 0b fb a2 3c
       -0.0043402305 0.008651367 0.025496222 0.019895097
000060 51 aa fe 3b 23 fb dd bb 43 0b 1d 3d 7a cc 28 3d
       0.007771768 -0.0067743226 0.038340818 0.04121063
000070 72 e0 24 bc 5d 9a b3 3c 54 98 d4 3c 27 2d 1b 3d
       -0.010063278 0.021924192 0.025951542 0.037884858
000080 8a 5a 00 3d 98 62 3b bc 7e 80 b1 3c f5 ab ff 3b
       0.031336345 -0.011437081 0.021667715 0.0078024813
000090 9a b7 f1 3c 0f a0 f7 bc 0c 39 06 3d a7 49 2c 3c
       0.029506493 -0.03022769 0.032769248 0.010515607
0000a0 0c 43 a3 bc e2 ae 22 bd 8a 8f 08 bd 80 1f c7 3c
       -0.019929431 -0.039717562 -0.033340015 0.024307013
0000b0 37 c1 ed bc c7 86 b9 3c 07 ee b0 3c 30 de 0b 3d
       -0.029022796 0.022647275 0.021597875 0.03414744
0000c0 12 8a b8 bc e8 a5 32 3d 60 66 cb bc 76 da ee 3c
       -0.022526775 0.04361525 -0.02482909 0.029156905
0000d0 4b 2d 9b bc 3c ac 10 bd d6 be 94 3b fc c6 e6 3c
       -0.018942496 -0.035320505 0.004539351 0.028171055
0000e0 9c 1e bb bc cd 04 00 3c 8d 59 98 3c 3f 00 de 3b
       -0.022841744 0.007813645 0.018597389 0.0067749317
0000f0 07 50 dd bc 5e 19 17 3d b0 96 f3 3c 29 2b a4 bc
       -0.0270157 0.036889426 0.02973494 -0.020040112

decoder.2.weight f4 [64, 1, 3, 3]
000000 f5 ad 8c 3d 92 40 e3 bd 81 a4 4b bd 52 42 39 3d
       0.06869117 -0.110963 -0.04971743 0.045229264
000010 b5 72 94 3e 4d ab 3c be b5 17 9b be d1 d1 e8 bd
       0.28993765 -0.18424721 -0.30291525 -0.11368144
000020 1c a4 76 3d 12 d8 22 be b6 6b 73 be 9b 96 6a bd
       0.0602151 -0.15902737 -0.23771557 -0.057272535
000030 4e 38 9d be 19 2e 95 3d c6 a4 68 be 74 41 d6 3c
       -0.3070702 0.07284183 -0.22719106 0.026154257
000040 0b bb 40 be 51 45 5f 3e bf e8 9a be 27 1f 5c 3e
       -0.18821351 0.21803786 -0.30255696 0.21496259
000050 57 63 37 be 98 c8 61 3e 50 03 c3 be 9f 9a 1e be
       -0.17908989 0.22049177 -0.38088465 -0.15488671
000060 91 df 9c be 0d 71 2d 3e 2e f3 02 bd 8e 85 d7 bd
       -0.30639318 0.16937657 -0.031970195 -0.105235204
000070 e3 73 5f be 7b bd 4e 3e b4 a4 13 bd 04 bf 97 be
       -0.21821551 0.20189469 -0.036045745 -0.2963792
000080 2a ef bb bd 42 f7 36 3b db ad a9 3d b9 34 1c 3e
       -0.09176476 0.0027918373 0.082851134 0.15254487
000090 9c 5d 95 3e 56 37 7b bd 1b ab d2 be 8a b8 54 3e
       0.2917298 -0.06133207 -0.41146168 0.20773521
0000a0 2f a6 a3 be bb da e0 be 61 6a 08 be 03 e9 24 be
       -0.31962726 -0.43916878 -0.1332183 -0.16104512
0000b0 30 ab 86 be d4 54 69 be 33 4c ee bd cd ed 53 3c
       -0.2630248 -0.22786266 -0.116356276 0.012935114
0000c0 65 61 3b 3e f3 02 5a 3e 57 54 b2 be ab 06 ae be
       0.18298872 0.21290188 -0.3482997 -0.33989462
0000d0 ea c4 17 3e 84 0e 05 be 6f 9e a7 3e 96 0c f2 bd
       0.1482121 -0.12993819 0.32738063 -0.11818807
0000e0 1a c9 40 3e 32 39 ed bd 70 4d bc bd 6f 2c 88 bc
       0.18826714 -0.11583175 -0.091944575 -0.01662275
0000f0 80 36 d7 3d 6f 02 be 3d 6a 90 e3 bc 5e c1 37 3e
       0.10508442 0.09277808 -0.027778823 0.17944857
000100 84 aa 89 be 78 a8 fd bd 92 43 a0 be 90 79 76 3e
       -0.26887906 -0.123856485 -0.31301552 0.2406981
000110 74 26 8a 3e b8 17 49 3d 79 01 f0 bc a8 bd 48 3e
       0.26982462 0.049094886 -0.029297577 0.19603598
000120 f4 c6 ac 3d 2b 06 82 3d 62 c0 fb 3d fc 23 9d be
       0.08436385 0.06348833 0.122925535 -0.30691516
000130 49 f5 6c 3e 9d 17 5f be 1f 19 17 bd 4a ec 34 3a
       0.23140444 -0.21786352 -0.03688919 0.0006901665
000140 3b 1c 2c 3e 82 38 2b 3e 61 d1 7a 3e f7 77 2d bd
       0.16807644 0.16720775 0.24493934 -0.042350736
000150 51 7a 75 bd f2 c9 82 3e 46 78 aa 3e f9 8f 79 bd
       -0.059931103 0.25544697 0.33294886 -0.06092832
000160 54 98 0f bd 1f 03 8f 3e 95 55 91 be 56 8e 3b be
       -0.03505738 0.2793207 -0.28385606 -0.18316016
000170 73 13 9b be 00 e8 ae bd a1 2b f2 3d a3 36 2d 3d
       -0.30288276 -0.08540344 0.11824728 0.042288434
000180 25 f3 2e be 0d 2c b1 3e 5a d8 f9 3d a0 82 87 be
       -0.1708494 0.3460392 0.12199469 -0.26466846
000190 bf dd 5f be c0 83 48 3e 4c 66 ab be 9d 9a 84 be
       -0.21861933 0.19581509 -0.33476484 -0.2589921
0001a0 a9 b9 9d be 83 e3 a1 3e 02 4d 0a be 05 1a 0f be
       -0.3080571 0.3161889 -0.13505939 -0.1397477
0001b0 70 e1 8b bc 12 02 8f be 10 51 89 be fc eb 25 be
       -0.01707527 -0.27931267 -0.26819658 -0.16203302
0001c0 9d 7e 67 3e 1b 3b 68 bc 4b 9f 9c 3e cd 6e 83 be
       0.22606893 -0.014174248 0.3059028 -0.25670472
0001d0 42 d3 52 3e 29 cb c7 3d 7f aa 20 be 09 f4 61 be
       0.20588401 0.097555466 -0.15690039 -0.22065748
0001e0 c4 21 a4 3e 77 1c 9a 3e 99 0b 06 3e 0b bf a8 3e
       0.3205701 0.30099842 0.13090362 0.32958254
0001f0 bd c2 96 3e 25 38 4e be 2c 5c 6a 3e 08 a8 20 be
       0.2944545 -0.20138605 0.22886723 -0.15689099
000200 0b 97 f1 bd 3e 07 56 be e0 f2 1b 3d 9b 04 40 3e
       -0.11796387 -0.209012 0.03807342 0.18751757
000210 83 11 0a 3d 40 79 a6 3e fa be 9e bd 58 3f 0c 3e
       0.033708107 0.3251438 -0.0775127 0.13696039
000220 65 66 85 3e de 70 a2 3e b1 c0 04 3d fb 6e 30 be
       0.26054683 0.31726736 0.032410327 -0.17229836
000230 40 e1 0f be 7f 09 91 be 7c 34 8f be 5d 04 a8 3e
       -0.1405077 -0.28327557 -0.2796973 0.3281583
000240 78 bd 3c be 28 ab e2 3d fb 34 95 3e da 5e ca bd
       -0.18431652 0.11067802 0.29141983 -0.09881373
000250 7e 3a 09 be d4 5c 07 3e 3b 41 34 3e 4b 7b 79 bd
       -0.13401219 0.13219005 0.17603008 -0.060908597
000260 6b 9f 2e 3e 7d e8 97 be 7d f7 69 3e 2f 84 89 be
       0.17053 -0.29669562 0.22848316 -0.2685866
000270 64 9a e9 3d 86 9b e6 3c d3 36 9f 3e 40 ea 4e be
       0.11406401 0.028150331 0.31096515 -0.20206547
000280 c3 7d b3 3e 23 66 9b be e0 1d 5e be 46 6d 70 3e
       0.35056886 -0.30351362 -0.21691084 0.23479185
000290 fb 3d 1b be 94 e0 7b bd 9c c8 ae be 8d 2c 98 3e
       -0.15160362 -0.06149347 -0.34137428 0.2972149
0002a0 5f aa 11 3d 77 1e a7 be 11 c6 73 bd bf c2 07 3e
       0.03556287 -0.3264043 -0.059515063 0.13257883
0002b0 db bd 8d be 70 c6 8f 3e b8 14 98 be 57 69 87 3e
       -0.2768391 0.28081083 -0.29703307 0.26447555
0002c0 b8 38 89 be 2a 9f 04 bd 55 3b 3e 3e f9 3b e2 bd
       -0.26801085 -0.032378353 0.18577321 -0.11046595
0002d0 6b a3 7e 3e ea cf 9b 3e c8 64 af be 75 ad da 3d
       0.24867027 0.30432063 -0.34256577 0.106776156
0002e0 0d e4 a4 be 6f 2d 94 be 65 49 d5 3d 90 66 b8 bd
       -0.3220524 -0.28940913 0.104143895 -0.09003937
0002f0 39 05 2a 3e 08 22 32 be b7 05 3d bd 21 70 c1 3c
       0.16603555 -0.17395794 -0.04614803 0.023613038
000300 f1 5e f7 bd 3c 0e 63 bd 2c 30 9e be 27 e1 4c bd
       -0.120786555 -0.055433497 -0.30896127 -0.05001941
000310 b7 60 2e be ab 0d c2 bc f8 27 12 3d 10 7e 8f 3e
       -0.17029081 -0.023688158 0.03568265 0.28025866
000320 9e 34 89 be 82 02 06 be 29 0b 52 3e 82 e6 70 3e
       -0.26797956 -0.13086894 0.2051207 0.23525432
000330 03 ad 90 3e 6c 60 9d 3e 94 6d 27 bd 01 aa 92 be
       0.28256997 0.30737627 -0.040875986 -0.28645328
000340 66 b1 91 bb 61 0e 8f 3d a7 8b 50 be 6e f5 09 3e
       -0.0044461964 0.069851644 -0.20365773 0.1347253
000350 5e 17 48 be 6a f8 83 bc d0 2c 96 bc 30 af a8 3e
       -0.19540164 -0.016109664 -0.018331915 0.32946157
000360 1c 10 b4 bc e3 ca a3 3e 19 99 ec 3c 89 15 2a 3e
       -0.021980338 0.31990728 0.028881596 0.16609778
000370 bf f2 0f ba e9 d4 58 3e cc 2a 21 be 8a 9f d5 3c
       -0.0005491189 0.21174969 -0.15738982 0.02607705
000380 aa 6b 7f bd f9 1e cb bd 4f 42 e9 bb 61 a9 7f 3d
       -0.062358536 -0.09918017 -0.0071185003 0.06241739
000390 c8 0b 88 be 17 23 17 3e fc 7b 39 3e fd 8e 9c 3e
       -0.26571488 0.1475948 0.18113703 0.3057784
0003a0 0d 9c 5f be 43 5b 44 be 30 93 a1 3d 04 ee 4e 3e
       -0.21836872 -0.19175439 0.07889402 0.20207983
0003b0 23 07 39 bd 19 42 9a 3e f5 1a 2e be e4 d6 6c bd
       -0.04517282 0.30128554 -0.17002471 -0.057822123
0003c0 59 23 d5 bd 12 d9 41 3e d3 81 68 be e1 24 20 bc
       -0.10407133 0.18930462 -0.22705774 -0.009774418
0003d0 b5 9e 8a 3e 67 0f 6a be 34 7d 01 3e 2f 1b 58 3e
       0.2707421 -0.22857438 0.12645417 0.2110412
0003e0 03 82 30 3e cd da 4c 3d bb 9c 75 3e 77 af c9 bb
       0.17237096 0.050013352 0.23985569 -0.0061549502
0003f0 5e 3a 97 bd 7b 86 a0 be 9a d6 63 be 03 3d ac be
       -0.073841795 -0.313526 -0.22249833 -0.33640298
