results_autoencoder/autoencoder_3l_32c/model_weights.pth (torch, 745682 bytes, 11 tensors)

encoder.0.weight f4 [32, 1, 3, 3]
-0.2219116 -0.079261534 0.23451449 0.053049527 -0.22949846 0.26735 0.17396885 -0.14189193
-0.24212375 0.27114505 0.011919119 0.10619093 -0.13812786 -0.25691035 -0.03908475 0.17483303
-0.16959508 0.009938769 0.29934925 0.27096927 0.36645672 0.19045782 -0.2641503 -0.29134595
-0.05209003 -0.2247883 -0.2124377 0.13074154 0.2551722 -0.28276667 0.13560185 0.06334947
0.11833548 -0.008214564 0.15019524 0.2735905 0.101227 0.046274334 -0.06812913 0.16516908
-0.25937256 0.06400716 0.2871683 -0.200879 -0.23795554 -0.21522911 -0.16630264 -0.046046086
0.323611 0.11385079 0.13648675 -0.17086613 0.214335 0.004688827 -0.008347056 -0.188635
0.1957407 0.02956754 0.10357329 0.1386638 0.25867367 0.022494169 -0.087845474 0.1495277
0.13963136 -0.30099016 0.16168414 0.076828666 -0.07181348 0.051341515 0.022738053 -0.012443658
-0.15148683 0.100277804 0.10069264 0.20782782 0.3287019 -0.10622997 -0.2919206 -0.005836844
-0.045697384 -0.3277481 0.27149576 -0.06583886 -0.30150244 -0.017207101 -0.14845484 0.3076813
0.10275005 -0.059323613 -0.06317987 0.25321418 0.23708592 0.042624883 -0.0029808958 -0.059216447
-0.30746198 0.3078379 -0.04605041 -0.25969306 0.2886994 0.2832042 0.28215897 -0.2823677
0.24267547 0.03239259 -0.19007334 -0.15588765 -0.14485241 -0.24321643 -0.116236895 -0.16357133
-0.16767873 -0.08389261 0.2079726 0.24989313 0.06315144 -0.13520566 0.07883098 -0.21472616
0.23318024 0.11806298 0.20960267 0.27009502 0.20999494 0.10794132 -0.1208117 -0.10985848
-0.12497712 0.07400304 0.10706189 0.002396192 -0.11815223 -0.12858887 0.13352004 0.058146812
0.0054649534 0.12458495 0.1218477 0.08200118 -0.2002491 0.0030650347 -0.28251103 0.09751999
0.30327666 -0.024976207 0.10227001 -0.20417303 0.3336959 0.21766943 0.25519112 0.060199134
-0.050412457 0.02097976 -0.16766922 -0.052925907 -0.24696879 -0.15563007 0.043320294 -0.1611493
-0.08852216 0.053248126 0.21921773 0.12623154 0.32606128 -0.12167933 0.17870995 -0.07539441
0.06561023 -0.25492766 0.22029543 -0.31286293 -0.23792161 0.22316396 0.19928227 0.22248302
-0.088250786 0.26078463 0.33021936 -0.22086474 -0.08595921 0.13181707 -0.062635675 0.30966973
0.30104327 -0.27695984 -0.057096273 0.15320094 0.0064796964 0.02602047 0.28400496 -0.3094706
-0.12856022 0.30540803 -0.16906065 0.04280777 0.19351475 0.19301039 0.33992535 0.28425276
-0.27176574 -0.14882591 0.037439287 0.08665022 -0.030048275 -0.20982042 0.03689802 -0.23490012
-0.18532106 -0.23368916 0.025261248 0.1866968 -0.112108156 -0.15802996 0.17911138 -0.10375671
0.1320962 -0.2697374 0.05401503 0.116212435 0.04848762 -0.16125102 0.31408623 -0.2805835
0.06093113 -0.08131345 -0.30536017 0.21509951 0.028365768 0.12040297 -0.18784301 -0.114998996
0.076336615 0.2857595 0.01736725 0.1354483 -0.16873309 0.15373115 0.039321043 0.2835545
0.23108849 -0.090376474 -0.019614423 -0.23012735 0.07278168 -0.13518336 0.056506414 -0.025862629
-0.23387073 0.038543396 -0.028230358 0.014480945 -0.08553971 0.2619956 0.17645022 -0.20369151
00000000: cb3c 63be df53 a2bd 9124 703e 764a 593d
00000010: a501 6bbe 19e2 883e e424 323e 1e4c 11be
00000020: 4aef 77be 86d3 8a3e 6948 433c a17a d93d
00000030: 6471 0dbe c189 83be 5517 20bd 6e07 333e
00000040: 55aa 2dbe 38d6 223c 4e44 993e 7cbc 8a3e
00000050: 37a0 bb3e 6007 433e b53e 87be 4c2b 95be
00000060: 5b5c 55bd e72e 66be 4589 59be 1ce1 053e
00000070: eea5 823e cbc6 90be 36db 0a3e 5ebd 813d
00000080: df59 f23d 6196 06bc c8cc 193e 0e14 8c3e
00000090: 1a50 cf3d 288a 3d3d 4987 8bbd 1522 293e
000000a0: 7bcc 84be 3016 833d b907 933e 39b3 4dbe
000000b0: 9eaa 73be 0565 5cbe 3d4b 2abe d29a 3cbd
000000c0: 57b0 a53e 9a2a e93d 2fc3 0b3e 88f7 2ebe
000000d0: a27a 5b3e bba4 993b 17c2 08bc 8929 41be
000000e0: 4070 483e a037 f23c 3c1e d43d e2fd 0d3e
000000f0: e070 843e b145 b83c 54e8 b3bd ca1d 193e
00000100: 86fb 0e3e 621b 9abe 8790 253e 5958 9d3d
00000110: f212 93bd 7b4b 523d 2745 ba3c 7ce0 4bbc
00000120: 5d1f 1bbe 735e cd3d f137 ce3d d1d0 543e
00000130: 9e4b a83e 198f d9bd 9e76 95be ff42 bfbb
00000140: 2e2d 3bbd 99ce a7be 7e01 8b3e 86d6 86bd
00000150: 875e 9abe e8f5 8cbc 8c04 18be 6788 9d3e
00000160: 9e6e d23d 51fd 72bd 7364 81bd 4aa5 813e
00000170: a7c6 723e 6e97 2e3d 225b 43bb f28c 72bd
00000180: a86b 9dbe ee9c 9d3e 5b9f 3cbd 7df6 84be
00000190: 68d0 933e 2400 913e 2477 903e 8092 90be
000001a0: eb7f 783e 18ae 043d 96a2 42be 03a1 1fbe
000001b0: 3154 14be ba0d 79be 9c0d eebd 3e7f 27be
000001c0: f9b3 2bbe e4cf abbd c5f6 543e fce3 7f3e
000001d0: 8b55 813d 5a73 0abe 2372 a13d 2de1 5bbe
000001e0: cdc6 6e3e 01cb f13d 15a2 563e e549 8a3e
000001f0: ea08 573e 5710 dd3d 206c f7bd 7cfd e0bd
00000200: 01f4 ffbd e88e 973d 4443 db3d 6e09 1d3b
00000210: ccf9 f1bd cdac 03be 7ab9 083e 5a2b 6e3d
00000220: 5a13 b33b 6526 ff3d 498b f93d 3cf0 a73d
00000230: 1a0e 4dbe c0de 483b 49a5 90be 8fb8 c73d
00000240: 1447 9b3e e79a ccbc f072 d13d bc12 51be
00000250: 30da aa3e bce4 5e3e 69a8 823e 5e93 763d
00000260: 4b7d 4ebd bfdd ab3c 7bb1 2bbe d6c8 58bd
00000270: 63e5 7cbe 7d5d 1fbe 9f70 313d 5204 25be
00000280: 1b4b b5bd b51a 5a3d 9d7a 603e d742 013e
00000290: 81f1 a63e 0333 f9bd beff 363e 6268 9abd
000002a0: a85e 863d e185 82be 2095 613e 922f a0be
000002b0: b9a1 73be 1885 643e a710 4c3e 97d2 633e
000002c0: d4bc b4bd 9085 853e 8312 a93e 5e2a 62be
000002d0: 620b b0bd 0efb 063e 2247 80bd 088d 9e3e
000002e0: 5822 9a3e aecd 8dbe c8dd 69bd b5e0 1c3e
000002f0: a253 d43b e128 d53c 1969 913e ee72 9ebe
00000300: 4aa5 03be 715e 9c3e 3c1e 2dbe 3357 2f3d
00000310: bb28 463e 84a4 453e b20a ae3e 9489 913e
00000320: e124 8bbe d265 18be f059 193d ac75 b13d
00000330: cd27 f6bc 2adb 56be 6122 173d a889 70be
00000340: cec4 3dbe 364c 6fbe adf0 ce3c 722d 3f3e
00000350: f698 e5bd 9bd2 21be f968 373e 667e d4bd
00000360: 3a44 073e 051b 8abe dd3e 5d3d c900 ee3d
00000370: f49a 463d fd1e 25be e9cf a03e a4a8 8fbe
00000380: ec92 793d ab87 a6bd 2b58 9cbe 0c43 5c3e
00000390: 545f e83c d595 f63d eb59 40be 9884 ebbd
000003a0: 5f56 9c3d 124f 923e c345 8e3c f6b2 0a3e
000003b0: 5ec8 2cbe b36b 1d3e 1a0f 213d 0e2e 913e
000003c0: 76a2 6c3e 4d17 b9bd 6dae a0bc 81a6 6bbe
000003d0: 900e 953d 826d 0abe 4573 673d dddd d3bc
000003e0: cf7b 6fbe aedf 1d3d 5a43 e7bc 7c41 6d3c
000003f0: 722f afbd 4a24 863e 5eaf 343e 8294 50be

encoder.0.bias f4 [32]
0.18354322 -0.029774552 -0.06447782 -0.24308617 0.20387593 0.1556861 -0.2516761 -0.088957
0.12685528 0.2350747 -0.2952767 0.118895195 -0.17155658 -0.16369978 0.28161064 0.18428531
0.093563505 0.31411263 -0.22600043 0.33813375 0.1280579 0.1687871 0.016342731 -0.24021061
-0.047787413 -0.03436742 0.07202596 0.147758 0.13017303 0.2851237 0.30289003 0.091666095
00000000: c1f2 3b3e c3e9 f3bc f30c 84bd 95eb 78be
00000010: dac4 503e 2d6c 1f3e b1db 80be 162f b6bd
00000020: 5ae6 013e 6cb7 703e 822e 97be 537f f33d
00000030: 87ac 2fbe eaa0 27be 452f 903e 4ab5 3c3e
00000040: 399e bf3d 5fd3 a03e a86c 67be de1f ad3e
00000050: 9c21 033e 87d6 2c3e 31e1 853c c5f9 75be
00000060: bcbc 43bd dac4 0cbd 5982 933d e04d 173e
00000070: 144c 053e bcfb 913e 6714 9b3e 6fbb bb3d

encoder.3.weight f4 [64, 32, 3, 3]
-0.069323644 -0.043283205 -0.09831149 -0.109507434 -0.06085209 -0.08332438 -0.034470815 -0.06511766
-0.098628476 -0.039239436 -0.04919813 0.011631377 0.021893522 -0.00450614 0.0064635407 -0.06881448
0.027157217 -1.2021112e-06 -0.08206282 -0.05560488 -0.004612817 0.071110874 0.039290834 0.0986769
0.01808623 -0.012144911 0.008845111 0.06167895 0.024392413 -0.0055646976 -0.041661147 -0.022928823
0.042705614 0.047410544 0.043196116 0.016993387 0.0312628 -0.048923902 0.052109856 -0.039997067
-0.037509426 -0.011274924 -0.030201709 -0.055763546 -0.053860486 -0.042695656 0.0045382734 0.015122942
0.052744485 0.011303611 -0.019931091 0.016579002 0.016114995 0.03438738 0.009338836 0.023055203
0.05619481 0.06804265 -0.033363126 -0.035834987 0.019737612 -0.010357876 -0.027182108 0.0700398
0.0777187 -0.025197912 0.055313118 0.045125734 -0.0013001655 0.055799678 0.038945448 0.0754057
0.05078949 0.051397216 0.029607372 -0.05407516 0.055492368 0.009803007 -0.015191843 -0.0151204895
-0.03643835 -0.042935275 -0.039201353 0.04409584 0.025182905 0.018022558 -0.049378738 -0.016998272
-0.08062919 0.017147323 0.0122359935 0.093242235 0.06817909 0.025537575 0.052869968 0.015516187
0.021393586 0.13198932 -0.039809678 -0.0014434932 0.058193333 0.056889355 -0.020435236 0.05981354
-0.010702134 -0.030790875 -0.034721717 -0.056104824 0.01661863 0.04490664 -0.023593806 -0.021577494
0.0061362563 -0.026686009 -0.025087444 -0.037414305 -0.03721735 -0.045295145 0.061832577 0.04078
0.06711829 0.013213727 0.04820371 -0.014685508 -0.030438205 0.03376032 -0.13097554 -0.040774006
-0.06420608 -0.057124473 -0.115663 -0.05682227 -0.030435625 -0.12383731 -0.09804481 -0.04725017
-0.055322327 -0.052283384 -0.03868156 -0.026554737 0.045954518 -0.061947167 -0.028212206 -0.035524502
0.06317063 -0.02311015 -0.03128351 -0.018695496 0.037699595 -0.017169649 -0.054074682 -0.042957213
-0.018700851 -0.118185066 -0.03750592 -3.849227e-06 -0.028720606 0.038486563 0.026240354 -0.038095266
-0.05531738 0.042708617 0.024595754 0.06211414 0.014826665 0.045372125 -0.011740616 0.024003593
0.033730585 0.031628624 -0.009404886 -0.04424338 0.036200568 -0.027143883 0.056319743 -0.00041390283
0.021781268 -0.023793556 -0.035318855 0.0024360495 -0.007768883 -0.035491776 0.0052265003 0.028358236
-0.008007365 0.044129286 0.00054298877 0.0025823424 0.027613837 -0.038506005 -0.036667738 0.022284938
-0.053112507 0.030992784 0.047969755 -0.022133686 -0.037689768 0.014363621 -0.03605336 -0.026470764
-0.048851114 0.0055683465 0.0018476254 -0.008997993 -0.017577155 -0.02300603 0.01180026 -0.008005477
0.04290122 -0.004672355 0.02507825 -0.0415357 -0.032446142 0.020980343 0.028976325 5.2211373e-05
0.017839868 -0.051655613 0.00990681 -0.05710555 0.022656696 -0.035681687 -0.026841916 0.015575251
0.01894697 0.033774715 -0.010727099 -0.038465705 -0.10416086 0.037179384 -0.06937355 -0.0833701
0.019012041 0.02691018 -0.009219183 -0.03535133 0.052993663 0.030996604 0.011050081 0.03559301
-0.042324573 -0.04868213 0.04493808 -0.013834179 -0.023609124 -0.13890111 -0.046578024 0.034851402
-0.062376466 0.009648564 0.00050627283 -0.12301239 -0.1168079 -0.072235815 -0.09307501 0.0144731365
00000000: 8ef9 8dbd bb49 31bd 8957 c9bd 6f45 e0bd
00000010: 0b40 79bd f9a5 aabd 4531 0dbd 685c 85bd
00000020: bafd c9bd 88b9 20bd fa83 49bd 8891 3e3c
00000030: 0b5a b33c 3ea8 93bb 1ccc d33b 9bee 8cbd
00000040: d078 de3c 3a58 a1b5 8d10 a8bd f1c1 63bd
00000050: 1d27 97bb 94a2 913d 6def 203d 1d17 ca3d
00000060: 9329 943c 73fb 46bc 16eb 103c 11a3 7c3d
00000070: 99d2 c73c 1158 b6bb e1a4 2abd 3ad5 bbbc
00000080: 15ec 2e3d 8f31 423d 69ee 303d b735 8b3c
00000090: 6c0d 003d 6e64 48bd 2571 553d f7d3 23bd
000000a0: 7ca3 19bd 75ba 38bc 9369 f7bc 5168 64bd
000000b0: d09c 5cbd a4e1 2ebd ccb5 943b 37c6 773c
000000c0: 9a0a 583d c832 393c 8746 a3bc b0d0 873c
000000d0: 9803 843c c8d9 0c3d eb01 193c 44de bc3c
000000e0: 872c 663d f259 8b3d c6a7 08bd b5c7 12bd
000000f0: c6b0 a13c 15b4 29bc 03ad debc 0771 8f3d
00000100: fb2a 9f3d da6b cebc 0290 623d c3d5 383d
00000110: 516a aaba 348e 643d 4385 1f3d 4e6e 9a3d
00000120: a408 503d e385 523d 298b f23c ea7d 5dbd
00000130: f74b 633d cb9c 203c 35e7 78bc eebb 77bc
00000140: 6140 15bd e6dc 2fbd 9991 20bd d79d 343d
00000150: 614c ce3c 0ba4 933c 5c41 4abd f63f 8bbc
00000160: eb20 a5bd 8b78 8c3c 7a79 483c c9f5 be3d
00000170: 7ba1 8b3d 2d34 d13c 2e8e 583d 9b37 7e3c
00000180: 9a41 af3c 3528 073e 790f 23bd 9833 bdba
00000190: 225c 6e3d d004 693d cc67 a7bc 0bff 743d
000001a0: 0158 2fbc 253d fcbc 5c38 0ebd 2cce 65bd
000001b0: cb23 883c 06f0 373d cc47 c1bc 49c3 b0bc
000001c0: a612 c93b 9e9c dabc 2f84 cdbc be3f 19bd
000001d0: 3871 18bd 6787 39bd 2844 7d3d ee08 273d
000001e0: 5075 893d 637e 583c 4171 453d 7c9b 70bc
000001f0: 8b59 f9bc 4348 0a3d 741e 06be a502 27bd
00000200: 7a7e 83bd 5afb 69bd b9e0 ecbd 78be 68bd
00000210: 2254 f9bc 6a9e fdbd b8cb c8bd 6589 41bd
00000220: aa99 62bd 1a27 56bd 8e70 1ebd 5289 d9bc
00000230: ce3a 3c3d 50bc 7dbd 491d e7bc 2482 11bd
00000240: 9a5f 813d 7f51 bdbc 2323 00bd 4c27 99bc
00000250: e46a 1a3d 5da7 8cbc 6a7d 5dbd e7f3 2fbd
00000260: 8732 99bc 030b f2bd cf9f 19bd 9c28 81b6
00000270: 7a47 ebbc 16a4 1d3d 03f6 d63c c809 1cbd
00000280: 7a94 62bd 3bef 2e3d 097d c93c 656b 7e3d
00000290: 8aeb 723c 1fd8 393d b65b 40bc 2fa3 c43c
000002a0: 1529 0a3d 048d 013d f316 1abc 8c38 35bd
000002b0: 0c47 143d d95c debc 88af 663d 1901 d9b9
000002c0: a16e b23c b4ea c2bc 81aa 10bd 21a6 1f3b
000002d0: 1d92 febb d35f 11bd 1043 ab3b 884f e83c
000002e0: 5331 03bc e9c0 343d 5c57 0e3a 843c 293b
000002f0: 6a36 e23c 79b8 1dbd e930 16bd e78e b63c
00000300: 808c 59bd 94e4 fd3c ef7b 443d b451 b5bc
00000310: 9660 1abd 6555 6b3c b0ac 13bd 37d9 d8bc
00000320: 1b18 48bd ad76 b63b 052c f23a 516c 13bc
00000330: f7fd 8fbc 2477 bcbc e155 413c 6729 03bc
00000340: 31b9 2f3d 8e1a 99bb e770 cd3c 5721 2abd
00000350: 3fe6 04bd f8de ab3c c25f ed3c 89fd 5a38
00000360: ea24 923c d694 53bd 2c50 223c 82e7 69bd
00000370: 899a b93c f626 12bd 94e3 dbbc 562f 7f3c
00000380: ad36 9b3c 5b57 0a3d b7c0 2fbc 378e 1dbd
00000390: 4a52 d5bd 6949 183d b813 8ebd f1bd aabd
000003a0: 24bf 9b3c bd72 dc3c 0e0c 17bc 8ecc 10bd
000003b0: e20f 593d 97ec fd3c 660b 353c fac9 113d
000003c0: 885c 2dbd ea66 47bd fe10 383d c1a8 62bc
000003d0: ec67 c1bc 183c 0ebe 99c8 3ebd 58c0 0e3d
000003e0: 777e 7fbd 0315 1e3c 65b7 043a eced fbbd
000003f0: fb38 efbd 5ff0 93bd 1c9e bebd bc20 6d3c

encoder.3.bias f4 [64]
-0.01952816 0.048305146 0.043794204 -0.006538497 -0.013646107 0.044140592 0.040795423 -0.0072666863
0.043380074 -0.036960904 -0.034269698 0.009728761 0.01730831 0.055066526 0.022958029 -0.010964439
0.036883738 -0.012537574 -0.010149406 0.046839852 0.03377417 -0.032695252 -0.012428648 0.0004689375
0.0063966587 -0.052834164 0.030807238 0.049487922 -0.041336026 0.03802125 0.021555882 0.04624648
0.0075545167 -0.016597336 0.0528266 -0.04699605 -0.045592662 -0.016873794 0.060983583 -0.002292271
-0.0026781862 -0.021604523 -0.032796632 0.011543042 0.04030159 0.057666615 -0.018123576 0.052394714
0.025656383 -0.030218273 0.056747794 -0.041477546 0.04850567 0.04594515 0.007030706 0.041506656
0.03663461 -0.01417822 -0.023781974 0.005609663 -0.009881528 -0.0484576 0.043487642 -0.039046753
00000000: 85f9 9fbc 9edb 453d 8d61 333d e340 d6bb
00000010: ec93 5fbc c4cc 343d 1a19 273d 621d eebb
00000020: 4eaf 313d 5164 17bd 625e 0cbd 6265 1f3c
00000030: 28ca 8d3c 708d 613d 7a12 bc3c 31a4 33bc
00000040: 6713 173d 666a 4dbc b249 26bc 25db 3f3d
00000050: c956 0a3d 75eb 05bd 87a1 4bbc badb f539
00000060: 109b d13b a368 58bd 765f fc3c d9b3 4a3d
00000070: f74f 29bd 2cbc 1b3d f695 b03c f36c 3d3d
00000080: e18b f73b 23f7 87bc b460 583d ee7e 40bd
00000090: 5fbf 3abd e93a 8abc ecc9 793d ed39 16bb
000000a0: 8284 2fbb f8fb b0bc c355 06bd 071f 3d3c
000000b0: 4813 253d d433 6c3d e577 94bc d79b 563d
000000c0: 562d d23c 508c f7bc 6070 683d 5ce4 29bd
000000d0: e2ad 463d fb30 3c3d d661 e63b e202 2a3d
000000e0: 2c0e 163d c44b 68bc 6ad2 c2bc 44d1 b73b
000000f0: 22e6 21bc 7a7b 46bd 1920 323d 7def 1fbd

encoder.6.weight f4 [128, 64, 3, 3]
0.031751614 0.003081955 0.025397763 0.0004224443 -0.024932122 -0.007211107 0.0055446206 0.023968711
0.026586022 0.04497015 0.04563869 0.00504038 0.01664593 -0.035274718 0.026288014 0.038962953
-0.017909518 -0.02738114 0.0096922815 0.04072308 0.06988007 0.0135834105 0.0031647424 0.035387445
0.01732296 -0.02917761 0.054088395 0.028192991 -0.02539239 0.036192343 0.0043259426 0.038549427
-0.00031075833 0.04015293 -0.02030547 0.009940429 0.02139323 -0.0022101393 0.041448236 -0.010457146
-0.0035494203 0.04090965 0.0055928575 -0.024174532 0.01474877 0.042987626 0.011389791 0.031170469
0.031802453 0.022344949 0.043788016 -0.012417743 0.042969484 -0.030624822 0.03440361 0.00032522282
0.02914156 0.026176296 0.014005706 0.040951744 -0.023740586 -0.017929008 -0.0015200495 -0.015294129
0.009721775 -0.0009731105 -0.0042121834 0.011952336 0.0136608975 -0.026865438 0.02807491 0.03142999
0.019123033 -0.004131672 0.037551727 0.001240385 0.029307798 0.0031851772 -0.032573212 -0.003592341
0.022800935 -0.017287774 0.019541703 0.04776757 0.04023788 0.0059363833 0.0024872604 -0.000641079
0.04067477 0.0044031492 0.022257537 0.02197921 0.00898644 0.021807078 0.016837444 0.024134414
0.009853423 0.022306964 0.03180442 -0.007786646 -0.021549433 -0.0036981648 -0.014493838 0.046139
-0.024898907 0.0069032116 0.040180754 -0.016676078 0.03318694 -0.01948698 -0.0015749056 0.008484915
-0.005384214 -0.021857005 -0.03561768 0.013722254 0.028534345 -0.018239599 0.0025395462 -0.019039396
0.03430527 0.01735063 0.019116165 -0.012339117 0.03897372 0.015464766 0.027383756 0.019165182
0.022836974 -0.029749373 -0.028450467 -6.4411746e-05 0.044153765 0.046573102 -0.029964916 0.031745635
0.0138441175 -0.010019614 0.004713917 -0.0014425206 0.032259274 -0.01468176 -0.018242884 0.0295155
-0.026751596 -0.02674322 0.027569255 0.02022352 0.043596387 0.024309685 -0.03107684 -0.018652573
0.0014488493 -0.010540127 0.0210253 0.046370156 0.017168514 -0.029048076 -0.01800263 0.02609497
0.003688448 0.037920095 -0.031255085 -0.025013894 -0.029693238 -0.01874176 0.029141314 -0.030723441
0.03834913 0.0053392556 0.03752157 -0.007982081 -0.025281403 0.027231637 0.027849572 -0.005676513
-0.010443131 -0.01790714 0.027488803 -0.026602158 -0.017819716 0.03422092 0.039590277 0.03347768
-0.032514732 0.005212283 -0.0025871901 0.02818403 0.04109538 -0.0010435556 -0.01953619 -0.018955471
0.023532221 0.031888425 -0.017573388 -0.022292716 -0.030573366 -0.014007934 -0.0032954873 -0.0046877814
0.05312896 -0.005948188 0.030402262 -0.008223375 0.024199378 0.0034654906 0.030732838 0.017523035
-0.0010011179 0.042528592 0.037675958 -0.025975956 0.015502384 0.014751564 -0.02146899 -0.029423801
-0.002257186 0.013033501 0.009835522 0.0056759613 -0.022695161 0.035168495 0.029394856 -0.020960242
0.04471389 -0.00242357 -0.021821357 0.017287062 -0.007688878 0.0097985305 0.009491853 -0.0005365788
-0.032865018 0.015683478 0.03526114 0.033679716 0.030370405 0.016998312 0.041506942 -0.0111687295
-0.017694084 -0.025677355 0.02526458 -0.0031287838 -0.0042370576 0.022161074 0.043379396 -0.009540239
0.0144115 -0.007329017 -0.012609823 -0.0038138963 0.036850594 -0.016033534 0.038653918 -0.022664849
00000000: fb0d 023d a0fa 493b f80e d03c 847b dd39
00000010: 733e ccbc 264b ecbb a6af b53b 085a c43c
00000020: eeca d93c 9f32 383d a3ef 3a3d c629 a53b
00000030: 0c5d 883c 397c 10bd f659 d73c 9e97 1f3d
00000040: fbb6 92bc 6a4e e0bc 60cc 1e3c 3fcd 263d
00000050: 481d 8f3d f48c 5e3c 9167 4f3b 6df2 103d
00000060: e1e8 8d3c e205 efbc cb8b 5d3d fdf4 e63c
00000070: b403 d0bc 6c3e 143d a3c0 8d3b 01e6 1d3d
00000080: 47ed a2b9 6677 243d a857 a6bc 2edd 223c
00000090: db40 af3c fcd7 10bb a0c5 293d 7354 2bbc
000000a0: 649d 68bb e190 273d 4a44 b73b ab09 c6bc
000000b0: d3a4 713c cb13 303d 3f9c 3a3c 3659 ff3c
000000c0: 4a43 023d c10c b73c 105b 333d ca73 4bbc
000000d0: c500 303d e8e0 fabc cdea 0c3d ab82 aa39
000000e0: 48ba ee3c ac6f d63c 3078 653c 04bd 273d
000000f0: 9e7b c2bc dbdf 92bc 663c c7ba 3a94 7abc
00000100: 1448 1f3c 5718 7fba 5b06 8abb bbd3 433c
00000110: f5d1 5f3c e814 dcbc 5bfd e53c bcbc 003d
00000120: e8a7 9c3c fa62 87bb d7cf 193d 6a94 a23a
00000130: e816 f03c 68be 503b 7d6b 05bd 7b6d 6bbb
00000140: 07c9 ba3c 179f 8dbc ec15 a03c eda7 433d
00000150: 7ad0 243d fe85 c23b 4e01 233b 150e 28ba
00000160: 969a 263d 4b48 903b 7055 b63c bf0d b43c
00000170: dc3b 133c c2a4 b23c aeee 893c 89b5 c53c
00000180: 4070 213c 18bd b63c 5a45 023d 1f27 ffbb
00000190: 7088 b0bc e95c 72bb 9077 6dbc 40fc 3c3d
000001a0: cbf8 cbbc 5634 e23b 9394 243d 459c 88bc
000001b0: 07ef 073d 29a3 9fbc 106d ceba 5004 0b3c
000001c0: 106e b0bb 760d b3bc d8e3 11bd 4ed3 603c
000001d0: dcc0 e93c 366b 95bc 846e 263b 82f8 9bbc
000001e0: af83 0c3d e922 8e3c 8199 9c3c 022a 4abc
000001f0: e8a2 1f3d ee5f 7d3c e653 e03c 4d00 9d3c
00000200: 9b14 bb3c f5b4 f3bc f410 e9bc cb14 87b8
00000210: 94da 343d 70c3 3e3d fc78 f5bc b607 023d
00000220: 70d2 623c 4f29 24bc 3477 9a3b f612 bdba
00000230: 4d22 043d c48b 70bc 1a72 95bc 7dca f13c
00000240: 2a26 dbbc 9914 dbbc ebd8 e13c ccab a53c
00000250: 2092 323d 1b25 c73c db94 febc 48cd 98bc
00000260: 51e7 bd3a 7fb0 2cbc 403d ac3c a2ee 3d3d
00000270: fca4 8c3c 3bf6 edbc 407a 93bc 1ec5 d53c
00000280: e4b9 713b 1a52 1b3d 5505 00bd f0e9 ccbc
00000290: 3c3f f3bc 5288 99bc c4b9 ee3c baaf fbbc
000002a0: fa13 1d3d ecf4 ae3b 38b0 193d 46c7 02bc
000002b0: f21a cfbc e214 df3c c924 e43c 0b02 babb
000002c0: ab19 2bbc ffb1 92bc 3330 e13c c5ec d9bc
000002d0: a7fa 91bc 3c2b 0c3d 6a29 223d e41f 093d
000002e0: 2b2e 05bd cdcb aa3b d98d 29bb 32e2 e63c
000002f0: a153 283d eac7 88ba 5c0a a0bc 8148 9bbc
00000300: a5c6 c03c 709d 023d 11f6 8fbc 379f b6bc
00000310: ff74 fabc 8981 65bc 1af9 57bb f69b 99bb
00000320: c19d 593d 04e9 c2bb 2a0e f93c 56bb 06bc
00000330: c63d c63c 491d 633b 6fc3 fb3c 788c 8f3c
00000340: f137 83ba 7632 2e3d 1b52 1a3d 87cb d4bc
00000350: b6fd 7d3c 8bb0 713c bcdf afbc 2f0a f1bc
00000360: 4ced 13bb 778a 553c 2b25 213c 6afd b93b
00000370: 34eb b9bc d70c 103d 7bcd f03c d0b4 abbc
00000380: e925 373d c2d4 1ebb b4c2 b2bc 999d 8d3c
00000390: fcf2 fbbb 048a 203c b883 1b3c 32a9 0cba
000003a0: 789d 06bd a37a 803c fc6d 103d bef3 093d
000003b0: 5bcb f83c 0b40 8b3c 2f03 2a3d 0cfd 36bc
000003c0: 2ff3 90bc 5159 d2bc aaf7 ce3c 480c 4dbb
000003d0: 04d7 8abb 248b b53c 98ae 313d aa4e 1cbc
000003e0: 361e 6c3c 4028 f0bb 6e99 4ebc 90f2 79bb
000003f0: a6f0 163d c258 83bc 9253 1e3d a2ab b9bc

encoder.6.bias f4 [128]
0.03600869 0.035808183 -0.009692731 0.018557668 0.031177301 -0.03177893 0.019333491 -0.03494405
-0.00054886367 0.02532217 0.04003944 -0.0040639443 0.022978378 -0.008253537 0.07159247 -0.025965305
-0.030619308 -0.010731942 0.035081927 0.04323648 0.046571948 -0.011984516 -0.031782046 0.0097999675
0.06090014 -0.0062805903 -0.027531179 0.038188282 0.018956961 -0.014551709 0.0017245719 0.0120071955
-0.033365678 0.040358428 0.08380543 0.037892904 -0.008239526 -0.008429548 -0.03558717 -0.009559556
0.023710648 0.032709107 0.038702205 -0.030960757 0.04110712 -0.021707682 -0.027367309 -0.0002802264
0.0006030772 -0.0052232407 0.026825817 -0.008579615 -0.01968792 -0.03387373 0.038739428 -0.014862789
-0.011300847 -0.030311638 0.035708047 0.034571916 0.018637896 0.02677117 0.047551334 0.023711788
-0.020349288 -0.009225972 0.011436441 0.005084704 0.0144924475 0.03433404 0.03577249 -0.013411194
0.019590491 -0.021492777 0.022469986 0.018484803 -0.021028584 0.00536631 0.030371783 0.039839145
-0.022958288 0.02384333 -0.0110990945 0.010199454 0.014289247 -0.032715198 -0.030533878 0.034868676
0.04550985 0.0025748806 -0.014567934 0.010547689 0.04506567 -0.01358632 -0.019250054 -0.025801655
0.028831493 0.037360772 -0.0321965 0.011586809 -0.022324324 -0.01362393 0.024384562 0.015067631
-0.035377048 -0.03622639 -0.028563756 -0.02044828 0.02345536 0.004201791 0.012362108 -0.010453851
0.0034916438 -0.0140285 -0.030645754 -0.023754597 0.031029357 0.033325203 0.022519024 -0.004001781
-0.00437158 0.018747369 0.015006323 -0.024183938 0.01232445 0.031654753 0.01579859 -0.0048552174
00000000: d97d 133d 9aab 123d 43ce 1ebc 4006 983c
00000010: 8a67 ff3c a02a 02bd 4561 9e3c 7e21 0fbd
00000020: 9ee1 0fba 7170 cf3c 6500 243d d62a 85bb
00000030: 273d bc3c d839 07bc 139f 923d 31b5 d4bc
00000040: 58d5 fabc 07d5 2fbc 11b2 0f3d bc18 313d
00000050: 3ac2 3e3d b45a 44bc e42d 02bd 0b90 203c
00000060: 6d72 793d 69cd cdbb 1189 e1bc 516b 1c3d
00000070: a14b 9b3c 4b6a 6ebc 080b e23a d4b9 443c
00000080: 73aa 08bd e14e 253d 2ea2 ab3d 9735 1b3d
00000090: 14ff 06bc 161c 0abc dac3 11bd af9f 1cbc
000000a0: d53c c23c fcf9 053d 3486 1e3d 6aa1 fdbc
000000b0: f15f 283d 4fd4 b1bc 6831 e0bc 5aeb 92b9
000000c0: d317 1e3a b827 abbb d1c1 db3c 8391 0cbc
000000d0: 9048 a1bc 2ebf 0abd 3cad 1e3d 0e83 73bc
000000e0: 3027 39bc 1d50 f8bc 9a42 123d 489b 0d3d
000000f0: 80ae 983c 364f db3c 30c5 423d 393f c23c
00000100: 8db3 a6bc 8828 17bc e95f 3b3c 979d a63b
00000110: bb71 6d3c daa1 0c3d 2d86 123d a0ba 5bbc
00000120: 3d7c a03c 9f11 b0bc fa12 b83c 716d 973c
00000130: 2344 acbc dfd7 af3b 3fce f83c 5f2e 233d
00000140: 0513 bcbc 1653 c33c fad8 35bc 9c1b 273c
00000150: 721d 6a3c 5f00 06bd 2f22 fabc 75d2 0e3d
00000160: 8968 3a3d 54bf 283b 58ae 6ebc 37d0 2c3c
00000170: c896 383d 2899 5ebc 4ab2 9dbc fe5d d3bc
00000180: 0630 ec3c 9c07 193d 7ae0 03bd 99d6 3d3c
00000190: 80e1 b6bc e736 5fbc 22c2 c73c 3ade 763c
000001a0: 86e7 10bd 2062 14bd 8afe e9bc 2783 a7bc
000001b0: 7525 c03c 2daf 893b 708a 4a3c a146 2bbc
000001c0: 10d4 643b cbd7 65bc ce0c fbbc 0099 c2bc
000001d0: 4731 fe3c 0280 083d d179 b83c 5f21 83bb
000001e0: 793f 8fbb 1594 993c 15dd 753c 651d c6bc
000001f0: 7dec 493c 6aa8 013d 0b6c 813c 8418 9fbb

decoder.0.weight f4 [128, 64, 3, 3]
0.022420146 0.008483123 0.034039576 0.043157626 0.036790296 0.030834338 -0.027531812 -0.030631393
0.039394032 -0.043887146 -0.011540691 -0.010261344 0.017798355 0.018419048 -0.028264124 -0.02990571
0.028120078 0.046755265 0.0018204194 -0.010408721 0.045136277 -0.023234745 -0.03888822 -0.027167547
-0.012829597 0.01667766 -0.029683206 0.031213064 0.009035636 0.01761521 -0.037930157 0.0107772285
0.021615436 -0.028542498 0.02522027 -0.0066210236 -0.0034406937 0.014132451 0.0044689067 0.04166941
0.0065481085 0.030956311 0.047340926 -0.012612863 -0.013038235 0.037377343 -0.052878864 0.031256516
-0.011255332 -0.011645987 -0.029020691 0.038517803 0.0637143 -0.012999627 -0.015997559 0.011608284
0.03463058 0.03554099 0.043307252 -0.025189599 0.023395045 -0.05370046 -0.018527737 -0.023341076
-0.016594425 -0.035399757 0.03158547 -0.02954515 -0.009185288 0.02676607 0.023039516 0.012165817
-0.029657336 -0.040749818 -0.028682997 -0.004735201 -0.01630279 0.008265523 0.029797673 -0.0017627429
0.008915159 -0.014270294 -0.01229544 0.020087566 -0.0072215344 -0.03097439 0.00687535 -0.03479805
0.0194671 -0.038043354 -0.0038485718 0.041294243 0.0087597035 -0.021572825 -0.02293827 -0.032087594
0.03501642 0.018501554 -0.005674308 0.027136903 -0.0049889786 -0.0051851366 0.035559103 0.0315351
-0.0037874817 0.024991088 -0.031279314 -0.013121322 -0.035520673 0.043766044 0.028461756 0.013884559
-0.013200272 -0.0002954912 -0.0009896285 -0.003664346 0.04007184 -0.033644494 0.009709499 0.022398718
0.044048373 0.024483498 -0.011647541 0.0002373209 -0.0013841407 0.021391587 -0.0051963464 -0.011974189
-0.0035122328 -0.017909752 0.011420285 -0.012405181 -0.031107103 -0.02650843 0.039011743 -0.0036571498
0.004537078 0.0073455735 0.032567162 -0.011729032 -0.024206392 0.008760306 -0.01133595 0.047760308
-0.0024684686 -0.01951536 0.007799643 -0.007973598 -0.015044797 0.015982345 -0.028300632 -0.026267884
-0.037874192 -0.00056807813 0.03778865 0.029367283 -0.012487642 -0.044541653 0.035759203 0.01027743
0.04048827 0.025794778 0.022475041 0.009933503 -0.006447269 0.02215113 -0.012893148 -0.005350529
-0.0031158882 -0.057160407 -0.022790281 -0.034826174 0.006490633 0.0279781 -0.00545461 0.026980722
0.034756433 0.010385964 0.030997088 -0.0064375806 0.0118870055 -0.009765202 -0.03343886 0.008035319
-0.04454833 -0.03397641 -0.023885313 0.030147294 -0.006672262 0.017971212 0.016374022 -0.0077028195
-0.007551168 -0.025705174 -0.01083225 0.0088329995 -0.05862618 0.015848387 0.009658913 0.035617925
-0.025290688 0.022492826 -0.012374302 0.013912798 0.03262908 -0.018061576 0.0021343895 0.019742282
-0.008192009 0.018550608 0.035695616 0.021018952 0.04111502 -0.008668295 -0.041514523 -0.01840554
0.00651934 -0.022623967 -0.0067024725 0.034700092 0.015468324 -0.023592984 -0.027519608 -0.0039220853
-0.030718956 0.010637002 0.00743777 0.019474784 0.035335608 0.0029918673 0.02853072 -0.014568657
-0.03793282 -0.014040016 0.0031232687 0.020183833 0.027795104 -0.0010655215 0.027797438 -0.0160964
-0.015431886 -0.01783336 0.04137797 -0.061743814 0.03202169 0.009783445 0.03736346 0.036943596
0.010013189 -0.04631413 0.023381846 0.06911842 -0.04054299 0.0076841093 -0.029354736 0.014884564
00000000: 74aa b73c ccfc 0a3c 156d 0b3d 0dc6 303d
00000010: 6cb1 163d 4b98 fc3c 658a e1bc b0ee fabc
00000020: a35b 213d 02c3 33bd 2b15 3dbc 321f 28bc
00000030: dbcd 913c 8be3 963c 2a8a e7bc d2fc f4bc
00000040: 145c e63c 7382 3f3d 249b ee3a 5789 2abc
00000050: d1e0 383d cb56 bebc 4149 1fbd 7a8e debc
00000060: 3b33 52bc 979f 883c 322a f3bc 8ab2 ff3c
00000070: 340a 143c c64d 903c a75c 1bbd f992 303c
00000080: db12 b13c f5d1 e9bc bd9a ce3c 2cf5 d8bb
00000090: 437d 61bb cc8b 673c e86f 923b 8bad 2a3d
000000a0: 8491 d63b 1798 fd3c 8fe8 413d 2fa6 4ebc
000000b0: 529e 55bc fc18 193d 8297 58bd d506 003d
000000c0: 4968 38bc cfce 3ebc cdbc edbc d8c4 1d3d
000000d0: a57c 823d 63fc 54bc 500d 83bc ac30 3e3c
000000e0: ccd8 0d3d 6e93 113d f262 313d 6b5a cebc
000000f0: f7a6 bf3c 03f5 5bbd 7bc7 97bc c935 bfbc
00000100: 08f1 87bc 56ff 10bd c45f 013d ac08 f2bc
00000110: e47d 16bc 8444 db3c 5ebd bc3c 2353 473c
00000120: f1f3 f2bc 48e9 26bd 9bf8 eabc bf29 9bbb
00000130: 6e8d 85bc 1e6c 073c 401a f43c d60b e7ba
00000140: e310 123c f4cd 69bc d072 49bc ae8e a43c
00000150: 9fa2 ecbb 01be fdbc 9e4a e13b 6688 0ebd
00000160: 7879 9f3c 59d3 1bbd 5238 7cbb 2724 293d
00000170: dc84 0f3c 7eb9 b0bc 0ae9 bbbc 486e 03bd
00000180: 616d 0f3d 9290 973c 8cef b9bb 364e de3c
00000190: 967a a3bb 14e8 a9bb 6ca6 113d f32a 013d
000001a0: 6637 78bb 1cba cc3c bd1e 00bd d0fa 56bc
000001b0: 207e 11bd 0644 333d a128 e93c 107c 633c
000001c0: f445 58bc 28ec 9ab9 6cb6 81ba 8625 70bb
000001d0: 5f22 243d cfce 09bd 9714 1f3c 847d b73c
000001e0: 116c 343d 9e91 c83c 54d5 3ebc 58d9 7839
000001f0: 0e6c b5ba 693d af3c 1d46 aabb 642f 44bc
00000200: 7d2d 66bb 79b7 92bc 261c 3b3c 1a3f 4bbc
00000210: 53d4 febc 3528 d9bc c7ca 1f3d cbac 6fbb
00000220: c5ab 943b 23b3 f03b 2565 053d 202b 40bc
00000230: 7c4c c6bc 6387 0f3c 6cba 39bc 50a0 433d
00000240: 08c6 21bb adde 9fbc 2694 ff3b b2a3 02bc
00000250: 747e 76bc 68ed 823c bad6 e7bc bf2f d7bc
00000260: f821 1bbd 14eb 14ba 45c8 1a3d a893 f03c
00000270: f798 4cbc 4f71 36bd 3e78 123d aa62 283c
00000280: 07d7 253d 924f d33c 941d b83c 22c0 223c
00000290: 9d43 d3bb 4976 b53c c83d 53bc 7e53 afbb
000002a0: ee33 4cbb 0821 6abd afb2 babc e4a5 0ebd
000002b0: 60af d43b 5432 e53c 96bc b2bb ad06 dd3c
000002c0: c35c 0e3d e429 2a3c 9bed fd3c 57f2 d2bb
000002d0: b7c1 423c 3afe 1fbc 30f7 08bd 92a6 033c
000002e0: 4f78 36bd d92a 0bbd 22ab c3bc 75f7 f63c
000002f0: fea2 dabb 5d38 933c d022 863c ef67 fcbb
00000300: ca6f f7bb a893 d2bc c079 31bc 49b8 103c
00000310: 0122 70bd 7ad4 813c 6b40 1e3c 1ae4 113d
00000320: 6b2e cfbc e042 b83c 96bd 4abc 81f2 633c
00000330: 12a6 053d dff5 93bc 1de1 0b3b 91ba a13c
00000340: c737 06bc 72f7 973c 9135 123d f02f ac3c
00000350: 3968 283d 7705 0ebc 220b 2abd 37c7 96bc
00000360: 30a0 d53b e655 b9bc 6aa0 dbbb af21 0e3d
00000370: da6e 7d3c 1346 c1bc cd70 e1bc d684 80bb
00000380: 52a6 fbbc d246 2e3c 89b8 f33b 9589 9f3c
00000390: 12bc 103d 3413 443b 42b9 e93c 60b1 6ebc
000003a0: 725f 1bbd 1808 66bc c1af 4c3b 9158 a53c
000003b0: 8fb2 e33c f8a8 8bba 74b7 e33c 99dc 83bc
000003c0: 05d6 7cbc 4417 92bc f27b 293d 15e7 7cbd
000003d0: 2d29 033d be4a 203c 6d0a 193d 2b52 173d
000003e0: 5c0e 243c e3b3 3dbd 498b bf3c f58d 8d3d
000003f0: 6810 26bd fbca fb3b 5879 f0bc 63de 733c

decoder.0.bias f4 [64]
0.013320841 -0.021919986 -0.0028421842 -0.017342435 -0.0057291524 -0.0071542836 0.0030051298 -0.021358876
0.01621725 -0.025695296 0.01635925 -0.01170835 0.041054484 0.040622413 -0.044598497 -0.023906002
-0.01949396 -0.004866215 -0.0442963 -0.0050839344 0.018786775 -0.038702413 0.015114985 -0.024522126
-0.018102909 0.0060668965 0.009112237 0.009576348 0.012062359 0.0046265186 0.029256556 -0.002405563
-0.0195418 0.02555835 -0.016608348 -0.003178923 -0.00014187799 0.025688687 -0.023879224 0.041684404
-0.029490037 -0.0012629064 -0.008048352 0.0030803857 0.03662745 -0.005560016 0.03697639 0.026817216
0.009749607 -0.018374015 0.016773129 0.012381772 0.029832497 0.0027197595 0.0277965 -0.02805196
0.020557204 0.0062168506 0.034210004 -0.014316396 0.028713971 -0.032160297 0.0018802419 0.030142773
00000000: a83f 5a3c 8b91 b3bc f043 3abb b911 8ebc
00000010: 9dbb bbbb 7b6e eabb b6f1 443b cff8 aebc
00000020: 0ada 843c f17e d2bc d503 863c 61d4 3fbc
00000030: bf28 283d b063 263d eaac 36bd 85d6 c3bc
00000040: ccb1 9fbc c574 9fbb 0970 35bd 2297 a6bb
00000050: b9e6 993c 6c86 1ebd d8a4 773c a0e2 c8bc
00000060: 8d4c 94bc d1cc c63b 7e4b 153c 1de6 1c3c
00000070: 33a1 453c 0d9a 973b 72ab ef3c a6a6 1dbb
00000080: 2016 a0bc bf5f d13c 3b0e 88bc 7a55 50bb
00000090: 15c5 14b9 1571 d23c 5d9e c3bc 44bd 2a3d
000000a0: 1795 f1bc 1b88 a5ba 3cdd 03bc 4ce0 493b
000000b0: aa06 163d cb30 b6bb 8e74 173d c7af db3c
000000c0: d1bc 1f3c 1a85 96bc cd67 893c eadc 4a3c
000000d0: 4863 f43c fe3d 323b 7cb5 e33c 39cd e5bc
000000e0: 9567 a83c b9b6 cb3b ca1f 0c3d 518f 6abc
000000f0: 9039 eb3c 84ba 03bd 7372 f63a faed f63c

decoder.2.weight f4 [64, 32, 3, 3]
0.06325106 0.029113518 0.05967105 0.016491082 0.023956172 0.018298464 0.0114003355 0.07178602
-0.02925047 -0.046714533 -0.02475806 -0.05851392 -0.023443937 0.011181539 -0.007871006 -0.0296748
-0.063429475 0.016211418 -0.036144532 0.017035844 0.0447232 -0.02252879 0.05198264 0.020706506
-0.018403225 -0.044633336 -0.009412108 -0.038225014 -0.02788777 0.037724182 0.026094615 0.017740425
0.025734765 -0.0058068396 -0.0008685273 -0.021579137 -0.059410192 0.009556319 -0.0399626 0.011288733
0.036814176 -0.056367487 -0.039470725 -0.0033246563 -0.057987522 0.04659517 -0.007152311 0.0033160034
0.043489154 -0.04212401 0.0076513737 -0.00053429615 -0.048143137 0.012898676 -0.005595875 0.0018398195
-0.04831413 -0.018918294 0.042476382 0.060987834 0.021417873 0.012762232 0.067267895 0.053936895
-0.04395164 -0.03995337 -0.010966713 0.032677867 -0.02809925 0.018407844 -0.032888163 -0.044770643
-0.0046991617 -0.041584656 0.039010193 0.062870175 0.04507792 0.017536193 -0.047814503 -0.030801015
-0.016621627 -0.037225407 -0.02991355 0.044614863 0.059189722 -0.021943096 0.024998274 0.034431607
-0.015981313 -0.0075747548 0.051923957 0.01519825 0.0056584873 -0.039818324 -0.017689725 0.009430853
0.029803135 -0.010580446 0.000895775 -0.040043425 -0.005436266 0.004536766 -0.005725243 0.018088609
-0.010980367 -0.06410529 -0.0026823755 0.02453896 -0.022476317 -0.0023265842 -0.0069283303 0.027701594
-0.06880321 -0.050106242 0.023857173 -0.0022954498 -0.063034244 -0.022132063 -0.057462376 -0.020211859
0.01681942 -0.0012222239 -0.008936018 -0.0048252703 0.014096234 -0.009204265 -0.057377014 0.029018795
-0.045383547 0.04358335 -0.0070281476 0.024040874 0.029364163 -0.0626083 0.019631706 -0.031956974
0.020411707 0.04449053 -0.028879164 0.043297738 0.055939697 0.04461051 -0.022896437 -0.036766287
-0.008253014 -0.0413371 0.02793951 0.04129422 -0.06030228 0.046634562 0.04501733 0.004052089
0.01830044 0.051220153 0.0011537685 -0.008203347 0.023166629 -0.020131031 0.007890666 -0.009598507
-0.041273966 -0.000976085 -0.0070858616 0.043162137 -0.06359022 0.03350235 -0.06927345 -0.036958493
0.047571857 -0.028464066 0.04860677 0.05528219 -0.019552888 0.047614932 -0.03803397 0.025577247
-0.03670213 0.0611983 0.04812125 0.026080674 -0.052053485 -0.003313555 0.060945556 0.034411486
-0.011851713 0.025800815 -0.0468388 0.04355501 0.0052644038 -0.056562223 0.051253077 -0.043899316
0.03966683 -0.032764938 0.055699054 -0.030817566 0.035552222 0.02320892 0.04786467 -0.0203918
-0.020994969 0.01135719 0.0405183 -0.01656788 -0.046791404 0.05194932 0.03390228 -0.03802373
-0.0398577 0.03073164 0.03585241 0.020217331 -0.052182525 -0.027083011 -0.012358367 -0.04933114
0.04139222 -0.0034166805 -0.021852385 0.002778124 -0.050532345 -0.023244726 -0.023513755 0.048981052
-0.034625668 -0.003672133 0.032490492 -0.00499717 -0.027770346 0.044106387 -0.039366793 0.04173137
0.011922211 -0.015631612 0.0402847 -0.016791545 -0.034515627 0.030819189 0.028998856 0.06387374
-0.0039478363 0.0025846562 0.0069257235 -0.058543317 0.040349443 0.0343585 -0.035932265 -0.051414605
0.0034008138 0.042708203 -0.04142789 0.051407933 -0.06114237 0.03790071 -0.019233713 -0.034357965
00000000: c689 813d 797f ee3c a269 743d 4e18 873c
00000010: bc3f c43c a9e6 953c 79c8 3a3c 8d04 933d
00000020: af9e efbc bd57 3fbd 6ad1 cabc 4bac 6fbd
00000030: 800d c0bc c632 373c 64f5 00bc 9118 f3bc
00000040: 50e7 81bd cfcd 843c 4a0c 14bd c18e 8b3c
00000050: ad2f 373d 4c8e b8bc c0eb 543d b1a0 a93c
00000060: 5cc2 96bc 72d1 36bd 3e35 1abc d591 1cbd
00000070: e574 e4bc ac84 1a3d 60c4 d53c 5e54 913c
00000080: b7d1 d23c 4d47 bebb e1ad 63ba bbc6 b0bc
00000090: 1a58 73bd 1b92 1c3c d3af 23bd 61f4 383c
000000a0: 76ca 163d 98e1 66bd 0eac 21bd 7ae2 59bb
000000b0: 5384 6dbd 94da 3e3d ef5d eabb 4e51 593b
000000c0: af21 323d 3a8a 2cbd 60b8 fa3b 0210 0cba
000000d0: bd31 45bd f854 533c 9a5d b7bb 1926 f13a
000000e0: 0ae5 45bd 8afa 9abc b7fb 2d3d 61ce 793d
000000f0: 8974 af3c ae18 513c c0c3 893d efec 5c3d
00000100: a306 34bd 25a6 23bd baad 33bc 3ad9 053d
00000110: 6630 e6bc 0ccc 963c bdb5 06bd 6c61 37bd
00000120: 6dfb 99bb ac54 2abd 27c9 1f3d 14c2 803d
00000130: a0a3 383d 10a8 8f3c 24d9 43bd 6952 fcbc
00000140: 142a 88bc ab79 18bd 430d f5bc 13be 363d
00000150: ec70 723d 02c2 b3bc 2ec9 cc3c 2808 0d3d
00000160: 3eeb 82bc a635 f8bb 37ae 543d 1502 793c
00000170: d56a b93b 8a18 23bd 0bea 90bc dd83 1a3c
00000180: b425 f43c 9b59 2dbc 71d2 6a3a 9304 24bd
00000190: b422 b2bb 27a9 943b d29a bbbb 902e 943c
000001a0: ffe6 33bc a249 83bd cbca 2fbb ee05 c93c
000001b0: 4120 b8bc 9b79 18bb 0c07 e3bb 74ee e23c
000001c0: b3e8 8cbd 343c 4dbd 1e70 c33c 426f 16bb
000001d0: 1918 81bd 4d4e b5bc ab5d 6bbd 5793 a5bc
000001e0: e1c8 893c 0733 a0ba 6068 12bc 4d1d 9ebb
000001f0: e4f3 663c 7ccd 16bc 2904 6bbd d3b8 ed3c
00000200: 19e4 39bd 7484 323d 604c e6bb 5ef1 c43c
00000210: 1d8d f03c c838 80bd acd2 a03c 51e5 02bd
00000220: 7436 a73c b43b 363d ff93 ecbc f858 313d
00000230: 0621 653d 83b9 363d 4f91 bbbc 3f98 16bd
00000240: a637 07bc 1751 29bd 66e1 e43c 2124 293d
00000250: 86ff 76bd e203 3f3d 1864 383d 63c7 843b
00000260: ceea 953c 39cc 513d 0c3a 973a 5567 06bc
00000270: f1c7 bd3c d5e9 a4bc da47 013c 0e43 1dbc
00000280: e40e 29bd f5df 7fba 8430 e8bb c8ca 303d
00000290: 973b 82bd c339 093d 3ddf 8dbd ca61 17bd
000002a0: b5da 423d 792d e9bc e417 473d 946f 623d
000002b0: 612d a0bc e007 433d 82c9 1bbd 6087 d13c
000002c0: f954 16bd 12ab 7a3d ca1a 453d 23a7 d53c
000002d0: 0936 55bd 3a28 59bb 0ca2 793d 0ff3 0c3d
000002e0: b02d 42bc 3b5c d33c 0bda 3fbd bd66 323d
000002f0: 0581 ac3b caad 67bd bfee 513d c5cf 33bd
00000300: b079 223d 8734 06bd b124 643d 1f75 fcbc
00000310: 359f 113d a220 be3c bf0d 443d b40c a7bc
00000320: a4fd abbc 8213 3a3c 84f6 253d 5db9 87bc
00000330: 58a8 3fbd cfc8 543d 1edd 0a3d c5be 1bbd
00000340: d441 23bd ecc0 fb3c fad9 123d d19e a53c
00000350: 58bd 55bd 31dd ddbc c07a 4abc 730f 4abd
00000360: e38a 293d 63ea 5fbb c603 b3bc 3011 363b
00000370: 01fb 4ebd b96b bebc eb9f c0bc 5ba0 483d
00000380: a5d3 0dbd 2ba8 70bb c014 053d 4dbf a3bb
00000390: a37e e3bc e6a8 343d 133f 21bd 83ee 2a3d
000003a0: 6155 433c de0d 80bc 9201 253d 6c8e 89bc
000003b0: 4260 0dbd 8678 fc3c 028f ed3c 3cd0 823d
000003c0: da5c 81bb 5663 293b 2ef1 e23b 1ecb 6fbd
000003d0: 7545 253d 80bb 0c3d b62d 13bd 1f98 52bd
000003e0: 30e0 5e3b ccee 2e3d 4bb0 29bd 2091 523d
000003f0: 6c70 7abd c63d 1b3d 0590 9dbc f0ba 0cbd

decoder.2.bias f4 [32]
0.024718195 -0.039649326 0.042327628 -0.061423246 0.030082453 -0.0014541816 0.016946409 0.008129747
0.06385523 -0.034494776 -0.056681514 -0.037760206 0.023748526 0.026717935 0.050210904 -0.0060246713
-0.027364485 0.0080319485 -0.052989393 0.010554371 -0.049454577 0.025939234 -0.037723765 -0.028584812
-0.04340096 -0.0040478534 -0.024300752 -0.029101366 -0.03475942 -0.0031479911 -0.06385046 -0.008153346
00000000: d07d ca3c 5567 22bd bc5f 2d3d f196 7bbd
00000010: 7a6f f63c 3d9a beba 32d3 8a3c a132 053c
00000020: 88c6 823d 654a 0dbd e02a 68bd 72aa 1abd
00000030: 458c c23c 92df da3c f3a9 4d3d 9b6a c5bb
00000040: 7c2b e0bc 6f98 033c 680b 59bd 3eec 2c3c
00000050: e290 4abd 847e d43c 3c84 1abd b22a eabc
00000060: 34c5 31bd dba3 84bb 5f12 c7bc fd65 eebc
00000070: e55f 0ebd 874e 4ebb 08c4 82bd 9d95 05bc

decoder.4.weight f4 [32, 1, 3, 3]
0.21153967 0.1518699 0.026651146 0.00066763605 0.16155148 0.3016204 0.26954743 0.11946239
0.055517178 -0.26816666 -0.06266285 -0.2674637 -0.043335028 0.020607347 -0.046716858 -0.0668195
0.13103677 -0.21074417 -0.06528623 -0.14051592 0.0632797 0.027047345 0.31421906 -0.3081354
0.16150518 0.22772856 0.17937961 0.23578432 -0.0999078 0.0036315143 0.048731398 0.111982234
0.26694706 -0.30612415 -0.05910411 -0.281733 0.07055782 -0.014927488 0.0041426346 -0.20830277
0.12443731 -0.3107198 0.18058714 -0.08437468 -0.050914414 -0.17491052 -0.25966045 0.18817782
-0.17161533 -0.34584466 -0.13728996 0.20111719 -0.059045423 0.15604022 -0.19023627 0.33886048
-0.12795871 -0.073917516 0.19431667 0.17954417 -0.30692744 0.020376269 0.24284074 -0.20362273
-0.04379984 0.007658606 0.11074641 0.29562175 0.16789111 -0.17273206 0.26553142 -0.17992745
-0.27660477 0.19868365 0.12121844 0.23800905 0.096123636 -0.12841429 0.32094842 0.19825558
-0.09265723 -0.0014422763 0.029042695 0.21679896 0.116162196 0.3052809 0.31859058 0.30762035
-0.10608293 0.16898409 -0.25507185 -0.16064243 -0.1752398 0.04913106 0.15126465 -0.10340407
0.2539455 -0.072031796 0.04595226 -0.31506872 0.0222453 -0.07916699 0.15437959 -0.28537163
-0.24450524 0.0009251231 0.102924585 0.053585913 -0.250836 -0.23698643 0.32799196 0.22778325
-0.1440162 -0.047193047 -0.04349881 0.18222845 -0.3071745 0.20670678 -0.15286247 -0.23158632
0.297201 -0.039309315 -0.09267384 -0.07873137 -0.060007587 -0.10777835 -0.24299307 -0.29644096
0.11989528 -0.033959858 -0.103377804 -0.18173105 0.20512009 0.31791565 -0.2281236 0.04240794
0.05499463 -0.141346 -0.036256112 0.30898583 0.27275166 -0.28703234 -0.2234274 0.28903744
-0.22732452 0.03589361 0.085224144 -0.10147526 -0.386495 -0.2276686 -0.21376596 -0.29094392
-0.015289478 -0.336861 -0.10701304 0.27735376 -0.3137139 -0.33887124 0.043798573 0.19973074
-0.29158556 0.2638075 -0.2535294 -0.36319116 0.08541383 -0.14752269 0.13750973 -0.25630525
0.12482729 -0.34411317 -0.3344892 0.3395675 -0.046749238 0.09446104 -0.23774473 -0.13292395
0.27948675 0.3377989 -0.2297085 -0.104778625 0.28873438 0.21761683 0.27443603 0.29974684
-0.007027259 0.22504288 0.16612528 0.089810304 -0.06859798 -0.15703581 0.22290123 -0.17125759
0.13140883 0.32542035 0.05460225 0.025267351 -0.2555471 -0.062946334 -0.29046917 0.3151693
0.25867182 -0.22021933 0.12633511 0.04850352 0.18035339 -0.0402074 -0.21573544 -0.3062339
-0.13848744 0.040346242 -0.011752683 -0.08344655 -0.00084474945 -0.13605163 -0.059395768 0.0939615
-0.18780914 -0.3218543 0.19333453 0.06623733 -0.25914052 0.114242464 -0.091717824 0.1018126
0.06845071 -0.295932 0.19447556 -0.27609 -0.1977701 0.040525123 -0.22398204 0.09454562
-0.18517537 0.12721246 -0.14896567 -0.31541523 0.17568815 0.11917826 0.0014006568 0.092883304
0.10467705 0.33896762 -0.19912915 0.32702792 -0.30737346 -0.26447508 0.28038946 0.29924086
0.06912741 0.15624256 -0.19698843 -0.14671092 0.0814131 -0.14837298 0.14897242 -0.03620578
00000000: db9d 583e c883 1b3e 8153 da3c 4c04 2f3a
00000010: c06d 253e fd6d 9a3e 1f02 8a3e b3a8 f43d
00000020: fb65 633d 244d 89be 6155 80bd 01f1 88be
00000030: 1280 31bd bdd0 a83c 2d5a 3fbd a9d8 88bd
00000040: 812e 063e 52cd 57be c9b4 85bd 68e3 0fbe
00000050: ca98 813d 6592 dd3c 52e1 a03e ecc3 9dbe
00000060: 9d61 253e ad31 693e 4aaf 373e 7271 713e
00000070: 769c ccbd b3fe 6d3b 939a 473d f156 e53d
00000080: 49ad 883e 4ebc 9cbe 2717 72bd 4f3f 90be
00000090: 9e80 903d 6c92 74bc f0be 873b 524d 55be
000000a0: fdd8 fe3d aa16 9fbe d6eb 383e a2cc acbd
000000b0: a28b 50bd be1b 33be 37f2 84be b0b1 403e
000000c0: eebb 2fbe 8d12 b1be bd95 0cbe aaf1 4d3e
000000d0: 9dd9 71bd 02c9 1f3e 4ccd 42be 1f7f ad3e
000000e0: 9c07 03be 1162 97bd f3fa 463e 6dda 373e
000000f0: 9825 9dbe 22ec a63c 3eab 783e 7a82 50be
00000100: 7667 33bd 0bf5 fa3b 04cf e23d bc5b 973e
00000110: a6eb 2b3e ace0 30be bcf3 873e e73e 38be
00000120: 249f 8dbe ba73 4b3e 6041 f83d a5b8 733e
00000130: 78dc c43d 097f 03be 5a53 a43e 8303 4b3e
00000140: 13c3 bdbd c30a bdba f2ea ed3c 8c00 5e3e
00000150: 72e6 ed3d c74d 9c3e 4e1e a33e 6a80 9d3e
00000160: 0242 d9bd 2a0a 2d3e c798 82be 737f 24be
00000170: 1072 33be a63d 493d 1fe5 1a3e 83c5 d3bd
00000180: 2505 823e 6885 93bd 7038 3c3d b050 a1be
00000190: c63b b63c 4e22 a2bd af15 1e3e 3b1c 92be
000001a0: 955f 7abe f683 723a 20ca d23d e77c 5b3d
000001b0: 946d 80be 92ac 72be 90ee a73e 0340 693e
000001c0: fc78 13be 7f4d 41bd cf2b 32bd 189a 3a3e
000001d0: fa45 9dbe f1aa 533e fb87 1cbe f724 6dbe
000001e0: bb2a 983e ce02 21bd c8cb bdbd ea3d a1bd
000001f0: 84ca 75bd e5ba dcbd 2dd3 78be 1cc7 97be
00000200: a88b f53d 7e19 0bbd beb7 d3bd b417 3abe
00000210: 000b 523e d7c5 a23e 3c99 69be f3b3 2d3d
00000220: 0d42 613d 01bd 10be 4a81 14bd 6433 9e3e
00000230: 1ba6 8b3e e7f5 92be 27ca 64be b7fc 933e
00000240: c2c7 68be 2e05 133d ff89 ae3d 43d2 cfbd
00000250: ace2 c5be f521 69be 77e5 5abe 9af6 94be
00000260: b880 7abc 0c79 acbe a729 dbbd 5001 8e3e
00000270: 1c9f a0be 8880 adbe 2266 333d 3786 4c3e
00000280: b44a 95be c711 873e 9bce 81be 31f4 b9be
00000290: 72ed ae3d 3010 17be 5acf 0c3e 713a 83be
000002a0: 73a5 ff3d 9a2f b0be 2b42 abbe cbdb ad3e
000002b0: 217c 3fbd ca74 c13d 5b73 73be 371d 08be
000002c0: e318 8f3e faf3 ac3e b438 6bbe 2d96 d6bd
000002d0: fed4 933e f2d6 5e3e e182 8c3e 6b78 993e
000002e0: ec44 e6bb a471 663e bf1c 2a3e 77ee b73d
000002f0: 197d 8cbd ffcd 20be 3840 643e 265e 2fbe
00000300: 0990 063e 7f9d a63e 9ca6 5f3d 7afd ce3c
00000310: 12d7 82be 02ea 80bd 60b8 94be df5d a13e
00000320: a270 843e 2d81 61be fe5d 013e a1ab 463d
00000330: 8fae 383e 84b0 24bd c0e9 5cbe b1ca 9cbe
00000340: a7cf 0dbe 1a42 253d 538e 40bc 06e6 aabd
00000350: 2d72 5dba 1e51 0bbe fa48 73bd e36e c03d
00000360: 0a51 40be 16ca a4be 7df9 453e 70a7 873d
00000370: 11ae 84be f4f7 e93d 8ed6 bbbd 2083 d03d
00000380: e32f 8c3d 6684 97be 9a24 473e ab5b 8dbe
00000390: 3f84 4abe acfd 253d 8c5b 65be 22a1 c13d
000003a0: 9d9e 3dbe fc43 023e 758a 18be 1b7e a1be
000003b0: 98e7 333e bb13 f43d 3e96 b73a 9a39 be3d
000003c0: ec60 d63d 2a8d ad3e 83e8 4bbe 3470 a73e
000003d0: 0e60 9dbe 4769 87be 358f 8f3e 1936 993e
000003e0: ac92 8d3d 0dfe 1f3e 56b7 49be 633b 16be
000003f0: e9bb a63d 16ef 17be 3a8c 183e 834c 14bd
