results_autoencoder/autoencoder_3l_16c/model_weights.pth (torch, 190930 bytes, 11 tensors)

encoder.0.weight f4 [16, 1, 3, 3]
000000 07 f1 51 3e 9a 77 49 3e 4b e3 42 3e 88 68 e8 bd
       0.20502101 0.1967453 0.19032018 -0.11348063
000010 8f 10 f3 bd d4 12 49 3e c8 95 e8 3d b7 03 99 be
       -0.11868393 0.19636089 0.113566935 -0.29885647
000020 ed c7 9a 3e b3 9a 91 be 92 5d fb 3c a4 61 24 3e
       0.30230656 -0.2843834 0.030684266 0.16052872
000030 8c 52 14 3e 8b f2 69 be b1 aa 36 3e 42 37 ad bd
       0.14484614 -0.22846429 0.17838551 -0.08457805
000040 ea 07 d7 bd 23 ec af bd 48 98 12 be b9 94 e9 3d
       -0.10499556 -0.085899614 -0.14315903 0.1140532
000050 7d ca 72 3e dd b9 63 be 1b 3b e7 bd 8c e4 3a be
       0.23710056 -0.2223887 -0.1129057 -0.18251246
000060 d2 61 52 be 12 02 5a be 89 e7 75 3e 8e ec e0 bd
       -0.20545128 -0.21289852 0.24014105 -0.10982619
000070 1e d1 7a be 27 21 ba 3e 2c a5 82 be f5 8e 8a be
       -0.24493834 0.36353418 -0.2551664 -0.27062193
000080 7a 1f 7c 3e 6e 36 4d 3d c5 67 4a 3e e3 7d 55 be
       0.24621382 0.050100736 0.19766147 -0.20848803
000090 82 9e 05 bd c1 e1 b5 3d 14 aa 50 be cf 5e 07 be
       -0.032621868 0.0888095 -0.2037738 -0.1321976
0000a0 68 86 34 be 07 45 c3 3c ea 13 16 be 03 5b 60 be
       -0.17629397 0.023836626 -0.14656034 -0.21909718
0000b0 31 3a 0c 3e 8a 8c 5c bc ab e1 88 bd aa 29 24 be
       0.13694073 -0.0134612415 -0.06683668 -0.16031519
0000c0 eb 02 07 3e d5 0a 9a bd 58 85 a9 3e f0 2f a3 3e
       0.13184707 -0.07521597 0.33109546 0.3187251
0000d0 b9 eb 3b 3e a9 56 99 bb 16 7b 73 3e ff 44 2c bc
       0.1835164 -0.00467952 0.23777422 -0.010514497
0000e0 1c 9a 4e 3e 4b 3f 02 3e 04 63 4a 3d e0 4d e9 bd
       0.20175976 0.12719457 0.049410835 -0.113918066
0000f0 69 b4 43 3e f8 09 5f be 5d 7a fc 3d 02 d5 e7 3d
       0.1911179 -0.21781147 0.123280264 0.11319925
000100 79 f5 78 bd fb f6 0a bd 18 2e 86 3e 3d 95 9e 3e
       -0.060780976 -0.033926945 0.26207042 0.30973235
000110 8e 4f 2e be f2 ec fa bd 86 0f 8a be 79 b2 97 be
       -0.17022535 -0.12252225 -0.26964968 -0.2962835
000120 6c db af bd 65 0e 0f 3e 3c e8 81 be 8d 26 c1 3d
       -0.08586773 0.13970335 -0.25372493 0.09431181
000130 d9 35 83 3e d6 d6 f2 3d b6 d5 40 be 4f 8f 89 3e
       0.2562702 0.11857383 -0.18831524 0.26867148
000140 1a 49 e1 3d c0 fe 2d 3e ea 9c ed 3d 06 bc a1 3e
       0.11000271 0.1699171 0.116021946 0.31588763
000150 65 62 e6 3d fc 9c 61 3d 22 19 44 3e b9 07 51 be
       0.11249236 0.055081353 0.19150212 -0.20413102
000160 23 ae 4c be dd 05 3f be 8f c0 2a 3e 40 9f c5 3d
       -0.19988303 -0.1865458 0.16675018 0.09649515
000170 cd 27 f3 bd ef 3e 2f be 10 cc b9 bd 69 68 fb bd
       -0.11872826 -0.17113851 -0.09072125 -0.12275774
000180 2c a6 cd ba d5 09 9e 3e 22 f3 61 be ca 37 af 3e
       -0.0015689782 0.30866876 -0.22065404 0.3422225
000190 05 3e 7b bd e4 08 66 3b 2b dd ff 3d b4 7f 19 bd
       -0.061338443 0.0035100514 0.12493356 -0.037475303
0001a0 b2 94 bd 3e 6a 08 66 3b 72 ba 69 be fc 58 78 be
       0.37027508 0.003510023 -0.2282503 -0.24252695
0001b0 fd 1d 58 bd b6 b9 06 3e f7 6d 30 be 23 e5 5d be
       -0.052762974 0.1315678 -0.17229448 -0.2166944
0001c0 27 5d 7a be 95 f3 9e 3d 8f 5c ad bb 91 b6 b2 3d
       -0.24449597 0.07761303 -0.005290575 0.08726228
0001d0 8e a7 52 be 99 e2 3e 3e f9 15 ad 3e ad 32 71 3e
       -0.2057173 0.18641128 0.33805826 0.23554488
0001e0 57 54 2b 3e 51 f2 b8 3d d8 1f 43 be cb d1 48 3e
       0.16731392 0.09030593 -0.19055116 0.1961128
0001f0 a5 a5 9e 3e a9 89 79 3e e7 c0 1e 3e 42 1a b7 bd
       0.30985752 0.2436892 0.15503274 -0.08940555
000200 98 5d 9b 3d e2 b0 d3 bd 80 81 a7 bd ab af c1 bd
       0.07586211 -0.10336472 -0.08178997 -0.09457334
000210 f6 b1 0c 3e c3 20 88 3e 5e f4 b0 3e 72 47 ee bc
       0.13739762 0.26587495 0.34561437 -0.029086802
000220 9f 52 81 3e c8 1b 19 3e 9e 72 2a 3a 5f 2f d4 3d
       0.25258347 0.14952004 0.00065020646 0.10360598
000230 7d a4 ce 3c c4 1b 25 bd 8e 8c 26 b8 60 a0 48 3e
       0.025224918 -0.040309682 -3.9708386e-05 0.19592428

encoder.0.bias f4 [16]
000000 64 49 7c 3e 51 c4 89 3e 75 55 c0 bd a2 1d 6a 3e
       0.24637371 0.2690759 -0.093913 0.22862867
000010 65 87 43 be bb de 9e 3d 82 07 48 3d 00 b0 a6 3e
       -0.19094618 0.07757326 0.048835285 0.32556152
000020 23 79 6d 3d b5 85 4b be 77 eb 98 be fb 89 42 be
       0.057976853 -0.19875224 -0.29867145 -0.18997948
000030 8d c6 82 bd 45 b5 a6 3e 36 66 01 be 7b 33 ad 3d
       -0.06385527 0.32560173 -0.12636647 0.08457085

encoder.3.weight f4 [32, 16, 3, 3]
000000 c5 21 7b 3d 5b ec af bc 9d f0 7a 3d 39 59 30 3d
       0.061311502 -0.021475008 0.061264623 0.04305384
000010 4f 71 c3 3d fa 17 26 bd c1 66 9a 3c 07 0d 21 bd
       0.09543096 -0.04055021 0.018847825 -0.039319064
000020 7c 5e 39 3d ee 43 34 be c6 b4 74 bc d2 43 5e bd
       0.045256123 -0.17604038 -0.014935678 -0.054263897
000030 e8 53 2b be fa 01 46 bd 77 3a 6a bd e5 8e f6 bd
       -0.16731226 -0.04834173 -0.057184663 -0.12038974
000040 9f bd 07 be 42 ad b8 bd be 2d e5 bb e1 a3 c0 3b
       -0.13255928 -0.09017421 -0.0069939783 0.005878911
000050 66 c1 77 bd 39 42 ea bc 01 d0 1b 3d d4 b9 9d 3c
       -0.060487173 -0.02859603 0.038040165 0.019253649
000060 74 55 82 bd bc bb 2e 3d c8 ba 55 bd 65 55 4f bd
       -0.06363955 0.042659506 -0.05218008 -0.050618548
000070 6c 6e 27 be b3 10 db bc 0f 96 9a bd 9d 08 c7 bd
       -0.16350716 -0.026741361 -0.07548153 -0.0971844
000080 bb 3f 11 be 17 a5 7a bd 49 ef 22 be ac 04 2c 3c
       -0.14184467 -0.0611926 -0.15911593 0.010499161
000090 8d b2 25 3c b6 2f a4 3c 4b f1 eb bc 0c a1 08 bb
       0.010113371 0.020042282 -0.02880158 -0.0020847945
0000a0 ac fa 18 3d 1e 56 72 3d a9 90 89 bc 4d 0b 8e bb
       0.037348434 0.05916416 -0.016792612 -0.0043348433
0000b0 0f a0 ad bc 29 3d 50 3d ca 57 4f bd 3e 65 f3 bc
       -0.021194486 0.050839577 -0.05062083 -0.029711362
0000c0 a7 9f 8a 3d ad 36 33 3d bb 94 86 bd ac 2a c0 3c
       0.067687325 0.043753315 -0.06571337 0.023457848
0000d0 99 54 b0 3d f9 56 3a bd 5e 08 68 3d 73 6f 46 3c
       0.08609886 -0.0454931 0.056648605 0.0121115325
0000e0 ca 0e 85 bd ad 13 62 3d 8a e0 47 bd 5c 8b 8c bd
       -0.064969614 0.055194546 -0.04879812 -0.06862518
0000f0 4b ae 6c 3d 4e 74 1e 3d dd 7c 52 3c 23 03 33 bd
       0.057783406 0.038685136 0.012847153 -0.043704163
000100 40 3e 39 bd a7 2b cd bc 1c 30 25 3d ec 76 5d 3d
       -0.04522538 -0.02504523 0.040329084 0.05406849
000110 8d cf 46 bd 03 99 a0 3d 73 df 0d bb 60 8c 70 3d
       -0.04853778 0.07841685 -0.0021648079 0.058727622
000120 26 c8 52 bd 1e 55 6f bd 7f 57 40 3d ba b6 70 bd
       -0.051460408 -0.058430783 0.046958443 -0.05876801
000130 fe 65 c0 3c c6 61 93 3d 5d 2e 65 bd b2 eb 23 3d
       0.023486134 0.07196383 -0.05595242 0.0400197
000140 7a f4 c3 3d 6c ea ab 3d e4 b0 de 3c 35 b7 21 bd
       0.095681146 0.08394322 0.027183957 -0.03948136
000150 14 21 19 3d 54 29 c7 bd 8b df b9 bc 00 41 01 3a
       0.03738506 -0.097246796 -0.022689601 0.0004930645
000160 32 f8 99 3d 29 ae c6 3d 26 f0 94 b9 07 13 2d 3d
       0.075180426 0.09701187 -0.00028407684 0.042254474
000170 58 a1 4a 3c 85 5f 85 bc 40 68 c5 bc 3b 26 ca 3b
       0.012367569 -0.016280899 -0.024097562 0.006169108
000180 5c 01 55 bc 44 7e 49 bd 86 d6 dd 3c e6 f2 0b 3e
       -0.013000812 -0.049192682 0.027079832 0.13666877
000190 01 8a 14 3e 16 97 96 bc 9c d5 28 3e b5 40 84 3c
       0.1450577 -0.01838259 0.16487736 0.016144136
0001a0 1c 9d f7 3d 15 a9 32 3e 08 8b 8f 3d 14 c5 37 3d
       0.12090513 0.17447312 0.0700894 0.044865683
0001b0 e7 3b 80 3d f2 10 80 b9 9b 0a 1e 3b 67 20 9d 3b
       0.062614255 -0.00024426688 0.0024115208 0.0047951224
0001c0 18 06 75 bd 70 93 0a 3d d1 22 54 bd 2d a0 cc bc
       -0.059820265 0.033832014 -0.051791016 -0.024978722
0001d0 a8 19 9d 3c ef 16 99 3d 21 06 40 3d b2 25 15 bc
       0.019177273 0.07475077 0.046880845 -0.009103226
0001e0 18 6c e6 bc 7c fe 21 bd be df c6 bc e8 45 73 3d
       -0.028127715 -0.039549336 -0.02427661 0.05939284
0001f0 61 ad 7d 3b 9e 6b 59 3d df 70 2f 3d 1a 3c a0 3d
       0.0038708078 0.053081147 0.04283225 0.078239635
000200 40 99 74 bd df 6f 2b bd c3 3e da bc 5f 51 3d bc
       -0.059716463 -0.041854735 -0.026641255 -0.011555045
000210 e3 5f 60 3c c8 98 cc 3d 7f 0d 2d bd a1 df 62 3d
       0.013694736 0.09990078 -0.0422492 0.05538905
000220 0a 56 bc 3d 2f c9 bd 3c ec ca 20 bd 5d 40 dc 3c
       0.09196098 0.02316722 -0.03925602 0.02688616
000230 19 92 b2 3d a8 67 da bb 07 b5 18 3d 99 74 03 3b
       0.08719272 -0.006665189 0.037282016 0.0020058511
000240 71 ef 4b bc 03 a9 f8 bc ae 7a 74 3d 60 63 50 bd
       -0.012447224 -0.030354029 0.05968731 -0.05087602
000250 15 9d 50 bd b8 a5 5b 3a f2 6c 29 3d 4f 02 54 3d
       -0.050931055 0.0008378881 0.041363664 0.051760014
000260 c2 d7 4d bd e1 cc d0 bd ec d2 36 be 8b 98 9e bd
       -0.05025459 -0.101953276 -0.17853898 -0.07743939
000270 66 14 66 bd 61 5b 13 bd ae 0c 33 be 56 b9 1e bd
       -0.056171797 -0.035975818 -0.17485306 -0.03875097
000280 33 da 23 be 05 54 f9 bd 2a d5 0d 3d 3f db 05 3c
       -0.16001205 -0.121742286 0.034627117 0.008169948
000290 29 31 fb 3c 4a e2 2b bd 3f 07 30 3d 84 74 9d bb
       0.03066309 -0.041963853 0.04297566 -0.0048051495
0002a0 94 2f 6b 3d 9f ec 7e bd a3 f0 5f 3d da 4d fd bd
       0.05741842 -0.06223738 0.05467285 -0.12368365
0002b0 fd eb 60 bd 78 b1 e2 bb c0 32 83 bc 3a c1 b8 bc
       -0.054912556 -0.0069181286 -0.01601541 -0.022553075
0002c0 8b a6 c8 bd 7e ae c2 bd fb 03 b2 bd c0 3f 54 bd
       -0.097973906 -0.09505938 -0.086921655 -0.05181861
0002d0 f3 a1 92 3c 70 3d 26 bd 05 27 2a 3d 6c 9c 46 bd
       0.017899489 -0.040585935 0.04154112 -0.04848902
0002e0 5a 6c c0 3b ab 53 c3 3b cf 93 47 3c e4 9d 57 3d
       0.0058722915 0.0059609017 0.012181236 0.05264081
0002f0 a5 77 c4 3c 78 aa d0 3c 2d 6f 39 3d 6d 3a 8e 3d
       0.023982832 0.02547191 0.04527204 0.069447376
000300 d0 e0 82 3c 42 ce 59 3d cc 45 78 3d 45 6f 8b bd
       0.01597634 0.05317522 0.06061344 -0.06808332
000310 47 d1 c0 3d 91 c6 2b 3d 33 62 c6 3c fc 60 1f bd
       0.094149165 0.041937415 0.024216747 -0.03891085
000320 21 2a a0 3d 08 f2 92 3d 99 ee 89 3d 52 ed 2b 3d
       0.078205355 0.0717507 0.06734962 0.041974373
000330 6b a1 b7 3d ab 01 b6 3d f2 1e a5 3b b4 7c 82 3d
       0.08966335 0.08887037 0.0050390894 0.063714415
000340 98 20 11 bd a2 80 5e 3d 44 2b 79 3d 84 31 a0 bd
       -0.035431474 0.054321893 0.060832277 -0.07821944
000350 7a b9 54 bd a3 e5 a5 bc f2 5b 44 3c 9a 79 92 3d
       -0.051934697 -0.0202511 0.011984812 0.071521
000360 90 4d 84 3d a8 c9 71 3d 8a 62 53 bd 71 3c 43 3d
       0.064601064 0.059030205 -0.051607646 0.047665063
000370 47 78 44 3d c5 b1 bd bc da 98 34 3c 47 84 52 3c
       0.047966268 -0.023156056 0.011022771 0.01284892
000380 0a d0 b7 bc 84 cb 01 bd f9 2e b2 3c ad b4 12 be
       -0.022438068 -0.03168823 0.021750914 -0.14326735
000390 39 4f a2 bd 0b 4a 23 bd 39 ee c0 bc 06 75 09 3e
       -0.07925267 -0.039865535 -0.023551093 0.13423547
0003a0 22 fc 06 3e 90 7a 6e 3d 6b c4 20 3d e7 50 0a bd
       0.13182119 0.058222353 0.03924982 -0.03376856
0003b0 d2 e7 eb bc ac 6b 48 bd e3 09 59 3c 09 9b 3e bd
       -0.028797064 -0.04893081 0.013246986 -0.04653457
0003c0 00 81 3f 3d 6f d3 24 3d 44 ed 11 bd 17 c8 34 bb
       0.046753883 0.0402407 -0.035626665 -0.0027585083
0003d0 c9 08 d1 3d b3 f9 c3 3d c0 a7 a5 3b 67 e6 f5 3d
       0.10206754 0.09569111 0.0050553977 0.120068364
0003e0 5f 4e 97 3d f8 d8 29 3e 85 55 34 3e 03 60 b5 3d
       0.07387995 0.16586673 0.17610748 0.088562034
0003f0 74 71 30 bd cb da 22 3d ed 3c ab 3b b3 c2 f8 bb
       -0.043076947 0.03975944 0.005225769 -0.0075915693

encoder.3.bias f4 [32]
000000 13 e0 d1 bc dc f7 c9 bb dd 2c 0e bc 20 51 a3 bc
       -0.025619542 -0.0061635803 -0.008677688 -0.019936144
000010 fc 18 ac 3d 1e ff 34 3d ee 00 4e 3d 53 7f 4e bc
       0.08403203 0.04418861 0.050293855 -0.012603599
000020 71 08 a2 bc 74 24 8f bd da 02 f1 bc 65 ba 01 3c
       -0.019779416 -0.06989375 -0.029420305 0.007917975
000030 9c 1e cb bc b0 13 93 3d 87 1c 15 3d 35 21 0c 3d
       -0.02479487 0.071814895 0.03640416 0.034211356
000040 9c fe c0 3c 14 e4 48 3d 68 3f 38 bd 18 a7 a4 3d
       0.023558907 0.049045637 -0.044982344 0.08039683
000050 9f c1 6f bd ce 98 7d bd 53 0f c1 3d 64 c7 07 bd
       -0.05853426 -0.061913304 0.09426751 -0.033149138
000060 a1 c0 8f 3d d3 3b 88 3d 4d 7e a2 3d e0 2b 80 bc
       0.07019163 0.066520356 0.07934246 -0.015645921
000070 79 2f 9e 3d cf 0d 99 bd 44 cb 3f bb 4d 07 6e bd
       0.077238984 -0.07473337 -0.0029265443 -0.05811243

encoder.6.weight f4 [64, 32, 3, 3]
000000 ae 55 10 3d 1a 4e 1c bd 53 7f 35 bd b7 24 33 3d
       0.03523796 -0.03816042 -0.04431088 0.043736186
000010 44 ee 9a 3d 36 a2 fd 3b fe c9 7e 3d 30 bd 3a 3d
       0.07564977 0.0077402843 0.062204354 0.04559058
000020 40 26 11 3d b8 0d 14 3d 1e 52 32 3d 57 93 8a bc
       0.03543687 0.036145896 0.043535344 -0.01691596
000030 87 7d 53 3d 6b 9e 97 bc c0 f5 88 3d 23 32 af bc
       0.051633384 -0.018508157 0.06687498 -0.021386212
000040 b7 b9 0d bd c9 45 cd bc 52 9d 96 bd 29 b0 d9 bd
       -0.03460094 -0.02505769 -0.07354225 -0.10629303
000050 f3 6e 93 bd b4 61 e7 bb f2 64 bd bc 9a 01 8e bd
       -0.07198896 -0.0070612077 -0.023119424 -0.06933899
000060 ff 47 a6 bd 9f 13 96 bd d8 0c 08 be d8 d3 7b 3d
       -0.08119201 -0.07327961 -0.1328615 0.061481327
000070 f6 ba 11 bd 3d f0 19 bb a8 1e f8 3c 1b 22 ff 3c
       -0.03557869 -0.002348914 0.030288056 0.031144192
000080 90 8d 23 3d c6 f9 1c bb 6f e6 23 bd 28 34 f4 3c
       0.039929926 -0.0023952588 -0.04001468 0.029810026
000090 21 34 5f bb f6 c1 87 3d e8 9b 72 bc 93 8c 17 3d
       -0.003405817 0.06628792 -0.014807679 0.036999296
0000a0 52 17 06 3c fa 3b 61 3d 38 3e bc bc 18 f3 25 3d
       0.008184271 0.05498884 -0.022978887 0.040515035
0000b0 10 07 33 bd 5d aa 6a 3d c4 58 08 3d db 48 00 bd
       -0.043707907 0.057291377 0.03328778 -0.03131948
0000c0 6e a8 0b bb 97 38 ff 3c 1c 4d 03 3c 17 83 82 3d
       -0.0021310109 0.031154914 0.00801399 0.0637266
0000d0 a2 4d 38 3d 95 85 60 3d 09 a2 a7 3c fb 6d 1d 3d
       0.04499591 0.054814894 0.020463007 0.038434964
0000e0 3b 05 02 3c 5e f5 55 3d 97 74 6e 3d a8 2e 04 bd
       0.007935817 0.052235954 0.058216657 -0.032271057
0000f0 09 1e 2e 3d 44 14 32 bd 0c 03 8b 3d a4 33 42 bd
       0.042509113 -0.043476358 0.067876905 -0.04741253
000100 6f 36 10 3d 6d 5f 32 bd dc f3 3a 3d 35 96 fa bc
       0.035208162 -0.043548036 0.04564272 -0.030589202
000110 9d 37 fb bc b0 06 30 bd 72 50 d4 3c aa b3 3b 3d
       -0.030666167 -0.042975128 0.025917266 0.045825638
000120 04 05 7b 3d c4 45 46 bb 3c d1 34 3d e5 99 7b 3c
       0.06128408 -0.0030253986 0.044144854 0.0153565155
000130 85 88 30 3d 47 fc 0f bc 4b 22 81 3d 69 bf d6 3c
       0.043098945 -0.008788175 0.06305369 0.026214318
000140 b9 e8 c3 bc 2b b7 86 3d fa 65 10 bd a4 08 17 3c
       -0.023914682 0.06577905 -0.035253502 0.009218369
000150 05 6c 11 bd 26 63 63 bb a0 23 9a bc be 80 2c bd
       -0.035503406 -0.0034696548 -0.018815815 -0.042114966
000160 81 62 73 bb a7 25 85 3d c3 47 44 bb 19 2b 03 bd
       -0.003713757 0.06501322 -0.002995 -0.032023523
000170 4f ca 32 3d d4 ed e2 bb b1 eb 67 bb 96 c2 18 3d
       0.043649968 -0.006925324 -0.0035388286 0.037294947
000180 3b 3c 47 3d a7 fa f8 ba 74 91 01 3b 1c 6f 8b 3c
       0.048641425 -0.0018995599 0.0019770535 0.017020755
000190 04 fe 8d bc 05 c7 c0 bc 25 1e 12 3d 2d 57 89 3c
       -0.017333038 -0.0235324 0.03567328 0.016765201
0001a0 5e bd 2e 3d 7a 1c 60 3d dd 5f ba 3c 78 95 33 3d
       0.042661063 0.054714657 0.02275079 0.043843716
0001b0 42 07 ea 3c f4 42 5a 3d d6 85 5c 3d fb f5 d2 bb
       0.028567914 0.053286508 0.053838573 -0.0064380146
0001c0 33 5f 6d 3c 76 bb 98 3c 0b 94 17 3d c8 6c 25 3d
       0.014488029 0.018644076 0.03700642 0.040386945
0001d0 89 cf 8c 3d 8f 12 f1 bc 34 b5 ad 3c 34 09 e5 3c
       0.06875522 -0.029427795 0.021204568 0.02795849
0001e0 2b d5 7a 3d 6a 96 ce bc bc 34 1a 3d 46 22 20 bc
       0.06123845 -0.025218207 0.037647948 -0.009773796
0001f0 62 41 cf bc 03 94 f2 3c b8 f1 15 3d cf 25 64 38
       -0.025299732 0.029611593 0.036607474 5.4394648e-05
000200 fb cd 4e 3c eb 20 91 3c 08 d8 7a 3d d0 9f de 3c
       0.012622352 0.017715892 0.06124118 0.027175814
000210 85 78 ea 3c 4f 4e 39 bd 2e c4 a8 3c a0 9e 61 bd
       0.028621921 -0.045240697 0.020601358 -0.055082917
000220 c1 8e a9 bd 02 86 1e bd 6c e7 e6 bd 71 f9 dc bc
       -0.08279181 -0.03870202 -0.11274609 -0.026974412
000230 7b a1 ee bd f8 c9 9b bd 58 f5 db bc 47 b3 81 bd
       -0.11651894 -0.07606882 -0.026850387 -0.063330226
000240 59 74 19 bd df 58 2e bd a6 e3 f6 bc f2 a6 d2 bc
       -0.037464473 -0.042565223 -0.030137848 -0.025714371
000250 c2 e7 49 3c 9e 36 23 bd e7 92 32 3d 26 e5 27 3d
       0.012323322 -0.03984701 0.04359713 0.040990017
000260 03 17 2c 3c 3b fd e1 3b 02 6e 81 bc 4b 38 fb 3c
       0.010503533 0.0068966425 -0.015799526 0.030666491
000270 f1 99 9a 3d 2c fa 28 3d 8a 28 51 3d 53 ca 88 3d
       0.07548893 0.041254207 0.05106405 0.06679215
000280 5e e2 18 3d 66 e2 a6 3c b8 e6 27 3c 6e 0c 54 3c
       0.037325256 0.020371627 0.010247879 0.012942417
000290 b0 40 a6 b9 83 cb e8 3c 1a 05 25 bd a1 1d 33 bd
       -0.00031710183 0.028417354 -0.04028807 -0.04372943
0002a0 94 bb cc bc 80 dd 19 bc 13 38 ca 3b be 10 0a bb
       -0.024991788 -0.009391189 0.0061712353 -0.0021067108
0002b0 ad 3d 1f bb 18 c5 88 3c 49 c5 1f 3d 1d 26 bb bb
       -0.0024298236 0.016695544 0.039006505 -0.0057113306
0002c0 d1 c6 bb bc 8f db 85 3d 24 89 ad 3c e9 b3 f8 3c
       -0.022921951 0.06536018 0.021183558 0.030359225
0002d0 e3 f0 82 bc 7c db fc bc e7 67 bc 3c c2 31 e3 3c
       -0.015984004 -0.030866377 0.022998763 0.027733687
0002e0 1c 78 f4 bc 82 97 82 bc 73 a6 a1 bc 12 39 e9 b9
       -0.029842429 -0.015941385 -0.01973269 -0.00044483744
0002f0 e6 e5 1b 3d 67 81 64 3d 70 e6 6a bc 6a 35 da 3c
       0.038061045 0.05578747 -0.014337167 0.026636798
000300 48 40 7f 3d c3 ad 50 3c 8b c8 83 3d d1 a6 aa 3b
       0.062317163 0.0127367405 0.06434735 0.0052078743
000310 f2 64 17 bd 88 09 14 3d a9 7a 83 bd 5b e8 44 be
       -0.036961503 0.036141902 -0.0641988 -0.19229262
000320 6d df 20 be 68 58 ba bd 74 0d 3e be 51 e9 e9 bd
       -0.1571023 -0.090988934 -0.1855982 -0.11421455
000330 62 8c 8e bc b0 cf d5 bd b8 e9 c6 bd 62 cc a3 bc
       -0.017400924 -0.10440004 -0.09712547 -0.019994918
000340 96 cf 9e 3b 09 9a fe 3c e4 a4 8a bb cb 6d 92 3c
       0.0048465235 0.031079309 -0.0042310823 0.017874619
000350 a5 8d 85 3d 67 1f 95 3d 23 b9 0a bb 80 1f 8c 3d
       0.06521157 0.0728138 -0.002116748 0.06841946
000360 0f 3e 02 bd 28 4d ed 3c dd a3 27 bd 6e f7 11 3d
       -0.031797465 0.028967455 -0.040927757 0.035636358
000370 c6 41 96 bc f5 96 83 3b 8e 1a 2e bc e6 b1 ab 3c
       -0.01834191 0.004015798 -0.010626448 0.020958852
000380 4d 10 52 3d cf de 0e 3d ba 81 9f 3c cd 08 9b 3d
       0.051285077 0.034880456 0.019471038 0.07570038
000390 08 96 ec 3c 0e bb fd 3c a4 b2 44 3d 41 4c d6 bc
       0.028880134 0.030972984 0.048021927 -0.026159408
0003a0 0e 19 97 3c a4 b0 4a 3d d1 eb 55 3c 90 9c 36 bd
       0.018444564 0.049484864 0.013056711 -0.044582903
0003b0 ca a5 29 bd 10 e2 79 3c dc 35 36 bc 08 b4 3b 3d
       -0.041417874 0.015251651 -0.0111212395 0.045825988
0003c0 c6 f8 54 3d 0e d0 e1 3c 61 73 1d 3d 74 d1 27 3d
       0.05199506 0.027565029 0.038440112 0.040971234
0003d0 63 0b 42 3b ea dc e9 bc 00 eb 1b bd 41 29 29 bb
       0.0029608838 -0.028547723 -0.03806591 -0.0025811943
0003e0 db 8d c7 bc ae 59 07 3d 14 a0 ec 3c 19 4f 19 bd
       -0.024359634 0.03304451 0.028884925 -0.03742895
0003f0 d1 e5 8b 3d 4a 5d f2 3b cc f1 51 bc dd 3a 76 3c
       0.068309434 0.007396375 -0.0128139965 0.015028683

encoder.6.bias f4 [64]
000000 12 ea 2c bd e6 e2 2a 3c af b4 88 3d c8 1b bd bc
       -0.042215414 0.010430073 0.06675088 -0.023084536
000010 ea da 35 3d d5 90 85 3d 12 c0 c0 3c 8b 5c f0 ba
       0.044398226 0.06521765 0.023529086 -0.0018338127
000020 5a dd f6 bc b4 70 37 3d 02 6f 6d 3d 81 49 da bc
       -0.030134846 0.044785216 0.057967193 -0.026646378
000030 73 ad 83 3d 5e 3d 4a 3d ba bd 77 3d 6c fb 10 bd
       0.06429567 0.04937493 0.06048367 -0.035396025
000040 7b fc bc 3c 6c 46 39 3d 68 74 7c 3c 27 4c 83 bd
       0.02306961 0.045233175 0.015408613 -0.06411009
000050 0f 66 14 bd a6 e5 e3 3c 1c c2 eb 3c 85 f6 86 3d
       -0.036230143 0.027819466 0.028779082 0.065899886
000060 02 dc 20 3c dc 4a 8f 3d d3 d5 8a 3d 71 de 5a 3d
       0.009818079 0.069967 0.06779065 0.053434793
000070 9d 06 99 3b f3 7a 68 3d 63 fb ab bc a0 61 33 3d
       0.004669978 0.05675788 -0.020993894 0.043794274
000080 eb 89 a5 3b 8b 19 81 3c 0c a3 63 3d e8 2f 7e 3d
       0.0050518415 0.01575925 0.055575415 0.062057406
000090 6e a3 3b bd 94 6b 3b bd c6 8b 95 3d 0c 2f a0 3c
       -0.045810156 -0.04575689 0.0730205 0.019553684
0000a0 de e2 56 3d 71 51 f6 3d 22 a8 7b bc d3 18 d2 3d
       0.05246245 0.120272525 -0.01535991 0.10258641
0000b0 f4 2c ac bc 84 e8 24 3d fb 63 6a bc 61 86 05 bd
       -0.02101753 0.040260807 -0.014306064 -0.032598857
0000c0 95 af 0b bd 75 6c e0 3d c3 18 84 3d fa a5 7e 3d
       -0.034102995 0.109581865 0.064500354 0.062170006
0000d0 1b 1e 70 3c 43 e0 92 3c 6a e7 ba bc 9b 97 1a 3d
       0.014655615 0.017929202 -0.022815425 0.03774224
0000e0 7b b8 41 3d dd ba 82 3b 2a af 43 bd 6f ce 77 bd
       0.047295075 0.003989561 -0.04777447 -0.060499605
0000f0 39 e9 07 3c a5 c9 9b bd db 6e 80 3d 83 5e 67 3d
       0.008295351 -0.0760682 0.06271144 0.056486618

decoder.0.weight f4 [64, 32, 3, 3]
000000 b9 e5 4e bd 3b 53 11 3d 47 92 9e 3c b8 d5 2c bd
       -0.05051205 0.035479765 0.01935686 -0.042196006
000010 0b e9 3d 3d 4b 96 1f bd 1d 49 4b 3d ab 04 f3 bb
       0.046364825 -0.03896169 0.049630273 -0.007416328
000020 21 7d 3b 3d f8 41 5f bd 8d 90 4b bd b9 b1 ec bc
       0.04577363 -0.054506272 -0.0496984 -0.028893339
000030 b5 a0 12 bd 56 d3 c9 3c da 3c b9 bc f4 95 39 bd
       -0.035797793 0.024636906 -0.022612024 -0.045309022
000040 d5 f0 c3 3b f6 8a 2c bc cd 7c bf bc 53 d7 bb 3d
       0.005979637 -0.010531178 -0.02337494 0.09171929
000050 33 bd 49 bb f1 9b 75 3d b0 d1 87 ba 53 80 15 3d
       -0.0030782938 0.05996317 -0.0010362174 0.036499333
000060 f0 cd 22 3d 56 b0 20 bb 1f c2 1e 3d 37 89 fb bb
       0.03974718 -0.0024519167 0.038759347 -0.0076762694
000070 82 8c 10 3d 04 3b 67 3d cd 2e b6 3b 73 ba 4f 3b
       0.03529025 0.056452766 0.0055597783 0.0031696826
000080 f5 a4 f7 3c 36 f5 13 bd ed 43 20 bd 1f 12 7f 3d
       0.030230025 -0.036122523 -0.03912728 0.06227314
000090 24 b6 15 3d 69 07 91 3d e3 f8 08 3d 00 33 68 3c
       0.036550656 0.070814915 0.033440482 0.014172316
0000a0 a6 1e 9c 3d ec d6 07 bd 6c 40 ab bc b9 00 3a 3d
       0.07623033 -0.03316395 -0.020904742 0.045410845
0000b0 ff f6 29 3c 70 9b 88 bc 31 03 b0 bc 19 39 96 bd
       0.01037383 -0.01667568 -0.021485897 -0.07335109
0000c0 24 6a 4c bc 13 ba 1d 3d 21 db 27 3d c1 2b 9d bd
       -0.012476478 0.038507532 0.040980462 -0.07674361
0000d0 c2 1a 30 3d 9c f5 cd 3d 76 ea 51 3d de 2e b5 3c
       0.04299427 0.10056612 0.05124899 0.022117075
0000e0 a7 fd 64 3c 49 f7 36 3d 64 be 2d bc 8d 46 59 bd
       0.013976491 0.044669423 -0.010604475 -0.053045798
0000f0 26 a0 cc 3c 79 21 ff 3c c8 76 11 3d 59 3e d5 3c
       0.024978708 0.03114389 0.03551367 0.026030706
000100 3b 27 9d bd 87 ad 2f bb f1 30 95 bc 34 41 62 3d
       -0.07673498 -0.0026806311 -0.018211814 0.055237964
000110 c5 15 c2 3d ec 06 30 bd ac 71 52 3d 51 58 91 3d
       0.094768085 -0.04297535 0.051377937 0.07096923
000120 d1 5c bf ba 75 8b 29 bd 4d 34 52 bd 15 b6 8d bc
       -0.0014599805 -0.041392762 -0.05131941 -0.017298738
000130 3e 7a b6 3c d4 64 f5 3b f9 2b 65 bc f2 72 f2 3c
       0.022275086 0.0074888263 -0.013987535 0.029595826
000140 27 fd a4 bc 64 07 31 bd 81 4e 17 bc ae a1 7c 3d
       -0.020140244 -0.04321994 -0.009235025 0.061677627
000150 14 3e 0c 3b 1e 1d 94 bc 6f 23 a4 ba 55 2d 2a 3c
       0.0021399306 -0.01808029 -0.0012522767 0.010386785
000160 bc fa 26 bc 28 9a ea 3b 70 ce 13 3a 55 2b 4a bd
       -0.010191616 0.00715949 0.00056383666 -0.04935773
000170 59 50 8d bc 4c 1d fd bc f0 e6 96 3d ae 3b ff bc
       -0.017250227 -0.030897759 0.073682666 -0.031156387
000180 49 a7 93 bb 60 5a 9a 3d 91 f3 10 3c 8f 96 c0 bd
       -0.004506026 0.07536769 0.008847133 -0.09403717
000190 55 aa 57 3c 0b e0 93 3d 4a cd 07 bd d8 2c 25 3d
       0.013163169 0.07220467 -0.033154763 0.04032597
0001a0 18 f6 ed bc fe 84 df bb 5c 3d 81 bc aa 09 be 3d
       -0.02904801 -0.006821274 -0.015776329 0.09279187
0001b0 9e d1 09 bd ea fd c8 bc 18 1a 11 bd fe 88 33 3d
       -0.033647172 -0.024535138 -0.035425276 0.043831818
0001c0 04 47 80 3d e5 98 15 3d af b0 30 bc c6 a4 b8 3b
       0.06263545 0.036522765 -0.010784312 0.005634877
0001d0 84 d7 1f 3b bd 0d f6 3b cc 6a 96 3c 01 3a 2d 3b
       0.0024389932 0.007508962 0.018361472 0.0026432278
0001e0 b6 91 8e 3d 95 f7 4d 3c 66 30 81 3d bd 14 83 bc
       0.06961386 0.012571235 0.063080594 -0.0160011
0001f0 44 75 9e 3b b2 2d 9e bc 81 48 89 3d 6f 3a 4a 3d
       0.0048357565 -0.019308899 0.06703282 0.049372133
000200 1e cf 80 bc d6 07 41 3c 99 a0 34 3d fe 39 42 3b
       -0.015723761 0.011781653 0.04409847 0.0029636617
000210 08 ba 02 bc 91 47 9f 3d aa da 43 bc 58 ea 39 3d
       -0.007978924 0.07777322 -0.011953989 0.045389503
000220 f3 a8 29 3d 0d c6 d0 3c 13 43 b3 3d ff 5c 30 3d
       0.04142089 0.025485063 0.08753028 0.043057438
000230 21 13 8b 3d 64 d7 14 bd ad 67 05 3d d6 b9 bb 3c
       0.06790758 -0.036338225 0.032569576 0.022915762
000240 d3 8c e6 bc 60 fe 6a bd f8 16 95 3d a4 46 0e bd
       -0.028143322 -0.057371497 0.072797716 -0.034735337
000250 29 dc 89 3d 44 0e fc 3c 6e 38 61 3d ff ce a9 3b
       0.06731445 0.030768521 0.054985456 0.0051821466
000260 83 02 50 3c e6 2f 15 3d 56 5e ed ba 86 a6 27 bd
       0.012695911 0.036422633 -0.0018109779 -0.040930294
000270 e5 8b c6 bc 35 61 94 3d 1a cf fb bb a2 e2 2b 3d
       -0.024236629 0.07245103 -0.0076846005 0.04196418
000280 c5 67 8f 3d 99 3a 33 bd b8 20 4a bd 6a 4e c4 3c
       0.07002214 -0.043757055 -0.04934761 0.023963172
000290 53 4e a6 3b e1 dd 50 bc 0a 6c 0f 3a f0 53 55 bc
       0.005075255 -0.012748213 0.0005471116 -0.013020501
0002a0 db 7c 8b 3d 67 62 d5 3c 94 29 71 3d 51 41 22 3d
       0.06810924 0.026047898 0.058877543 0.03961307
0002b0 c1 5a 80 3d a5 99 3d bd ee 2a d1 3c 7e 59 51 3d
       0.0626731 -0.046289105 0.025533166 0.051110737
0002c0 63 1f 0a 3d fd c6 27 3d c5 b7 ad 3c 01 e7 4d bd
       0.03372134 0.040961254 0.021205792 -0.05026913
0002d0 78 53 91 3d 6f 36 1e bc 92 ed 39 3d b1 77 40 3d
       0.070959985 -0.009656533 0.04539258 0.046989147
0002e0 a8 0b f1 39 ff 99 46 3d d8 22 78 3d dd 33 7b 3c
       0.00045975787 0.048486706 0.060580105 0.015332189
0002f0 85 65 50 bd 02 63 fa 3c 0d f9 5b bd 4e 52 64 bb
       -0.050878067 0.030564789 -0.05370431 -0.0034839096
000300 71 9c 76 bc 1d f2 c1 bc a2 63 04 bc 36 5c ad bc
       -0.015051947 -0.023675019 -0.008080395 -0.021162134
000310 57 4b b3 3c f0 0a 1a bd 52 7b 49 3d 3b 25 f7 bc
       0.02188651 -0.037608087 0.049189873 -0.03016912
000320 cb ee 2d 3c f0 bc 89 3d 2e e4 f4 3c 86 ba 9c 3d
       0.010616015 0.0672549 0.02989396 0.07652764
000330 61 2a a4 3c 5c 8c 2a 3d 9e 8e 9d 3d e8 a4 15 bd
       0.02003974 0.041637763 0.07693218 -0.03653422
000340 2e 39 79 bc a4 e8 cc 3c 6d 3b 72 3d 14 a2 26 3d
       -0.015211387 0.025013275 0.059138704 0.040681913
000350 9b b6 44 ba ce cd 50 ba 48 aa 00 3d f8 2f 8f 3d
       -0.0007504017 -0.00079652376 0.031412393 0.06991571
000360 05 6a 52 3a 72 92 63 bd 90 95 a6 bb c0 ba ec 3c
       0.00080266624 -0.055559583 -0.005083747 0.028897643
000370 3d 59 27 bc 13 d5 1a 3c fa f7 2c 3d 68 cd 27 bb
       -0.010214147 0.009450215 0.042228676 -0.002560461
000380 c2 9e 6d 3c 28 ee 18 bd d0 de 37 3d 61 59 80 3d
       0.014503183 -0.0373365 0.044890225 0.06267048
000390 33 a7 24 3d 74 ef 14 bd 9a 9f 19 3d a8 73 02 3d
       0.040198516 -0.036361173 0.037505724 0.03184858
0003a0 18 89 10 3d b3 ff f2 bc 32 3c 05 bd d4 cd d6 3c
       0.035286993 -0.029662943 -0.03252811 0.026221193
0003b0 2d 80 a5 3b 63 64 0a 3d 64 f1 7d bc e9 28 f4 bc
       0.00505068 0.033787142 -0.015499447 -0.029804664
0003c0 a9 25 a2 3d a9 06 bd 3c 70 8b 38 bb ce 4d a6 bc
       0.07917339 0.023074465 -0.0028159283 -0.020300772
0003d0 25 8d 25 bd ba 0f 28 3d b4 d0 af 3c a7 f0 14 be
       -0.04041781 0.041030623 0.021461822 -0.14544927
0003e0 fa df f9 bc 77 72 1f 3d 99 26 14 bd 63 4d 0b bd
       -0.030502308 0.03892752 -0.036169622 -0.03400935
0003f0 da e3 48 3c 98 86 f4 3c 97 ae cc bb c0 93 d9 bc
       0.012261355 0.029849336 -0.0062463987 -0.02655971

decoder.0.bias f4 [32]
000000 f9 8c 5c bc 9f 45 b2 3c 83 62 a3 bc 57 df aa bc
       -0.013461345 0.021761714 -0.019944435 -0.02085845
000010 7c 77 4c bd 59 0d 1b 3d 41 0b 97 bc 6a 48 ba bc
       -0.049918637 0.037854526 -0.018437983 -0.022739608
000020 db 6f b3 3c 09 04 b1 b9 f0 6c 5d 3c ef d9 3d bd
       0.021903923 -0.00033763077 0.013514742 -0.046350416
000030 50 61 d0 bc 52 a1 69 bc 9e 00 e5 3b ed b7 dc 3c
       -0.025437027 -0.014259653 0.006988599 0.026943171
000040 64 63 50 bc 9a f9 b9 3b 82 a3 fa 3c 99 85 74 3d
       -0.012719009 0.005675507 0.030595545 0.05969772
000050 d5 c6 1c 3d 6a 09 56 3d 27 ff 46 3d dc b7 e5 bc
       0.03827556 0.05225507 0.048583176 -0.028041773
000060 f4 43 11 3d 34 ac 6a 3c 45 9c 2e bd 8b 90 81 bc
       0.035465196 0.014323283 -0.0426295 -0.015815994
000070 09 9e d0 3a cc 2b 83 bc 65 b1 72 bc c2 d9 8b bc
       0.0015916239 -0.016012095 -0.014812802 -0.017071608

decoder.2.weight f4 [32, 16, 3, 3]
000000 b8 b5 37 bc 72 a8 94 bd 46 bd 97 bb 26 b9 5a 3d
       -0.011212759 -0.07258691 -0.0046307174 0.053399228
000010 2e 2f 30 3c a0 d5 85 3d eb 6a 7f 3d a5 e5 48 bd
       0.010753436 0.06534886 0.062357824 -0.04904713
000020 e1 1e 7b 3d 5e 3b bf 3d 91 59 2d 3d c6 25 fb 3c
       0.061308745 0.09337495 0.042321745 0.03065766
000030 a9 b9 7e bd dd 79 cf bc 60 b3 59 3d 84 0d a8 3c
       -0.062188778 -0.025326664 0.05314958 0.020514257
000040 c8 2c bf 3d 11 3c d4 3d ae 2f 51 bd 09 28 d5 bc
       0.09334713 0.10363019 -0.05107086 -0.026020067
000050 87 4c 67 3d fc 76 06 bc 36 8e ad 3d db 04 98 bc
       0.056469467 -0.008207079 0.0847439 -0.018557003
000060 4f 87 62 bd 5e 32 4f 3d 58 02 cb bb 87 e5 8a 3d
       -0.05530482 0.050585143 -0.0061953478 0.0678206
000070 a8 0f aa 3d 5d f7 1b 3d bb 9f 0c bd 80 e1 6a 3c
       0.083037674 0.0380777 -0.03433202 0.01433599
000080 7c 30 b7 bc dd 86 39 39 d7 e3 74 bd 9c 8c d2 3d
       -0.022361986 0.00017693215 -0.059787598 0.10280725
000090 db d1 e4 3c ef cb 6c 3d 9e 45 79 bd e4 75 7b bd
       0.027932098 0.057811674 -0.060857408 -0.061391726
0000a0 40 66 e4 ba 3c 61 e7 bc f7 14 cf bb 8e 77 6f bd
       -0.0017425492 -0.028244607 -0.006319638 -0.058463626
0000b0 13 58 34 3c 2f 3f ab bc 45 70 7e 3d fc 4c 88 bd
       0.011007327 -0.020904152 0.062118787 -0.066553086
0000c0 a3 07 c5 bc a4 9e 35 3d 70 3b ce ba 0b cb e5 3b
       -0.024051493 0.044340745 -0.0015734266 0.00701273
0000d0 e1 a4 98 3d 9b a2 d7 bb 1b 8c e1 bc 9b 29 86 bd
       0.07453323 -0.0065806634 -0.027532628 -0.06550904
0000e0 aa 0d 40 bd 6c 3b f5 bd 4f 0f 56 bd 33 4a 0e bd
       -0.04688803 -0.119742244 -0.052260693 -0.03473873
0000f0 6a 24 51 3c 99 b7 2f 3d 71 80 0e 3d ee 6f 19 3c
       0.012765029 0.0428997 0.03479046 0.009365065
000100 8a d4 ae bd 4f 4f 2f 3d 50 5c 65 3c 27 67 79 3d
       -0.08536632 0.042800244 0.01399906 0.06088939
000110 b4 5f 0d bc 7f f9 3d bd b3 0d 82 3d 5a 64 87 bd
       -0.008628774 -0.046380516 0.06350269 -0.066109374
000120 90 4c 85 3d f8 e8 49 bd 59 f0 20 bd 59 9f 89 bd
       0.06508744 -0.049294442 -0.039291713 -0.06719846
000130 11 b2 13 3d 8c 58 66 bd 69 8d 3a 3d 35 1b ba 3c
       0.03605849 -0.05623679 0.045545015 0.022718051
000140 49 10 7a bd fc 64 88 3d 74 fb 76 bd 01 1a 65 bd
       -0.061050687 0.06659886 -0.060298398 -0.055933002
000150 6d 19 27 3d d7 65 04 bd 14 bb d7 3c fb 44 4e bd
       0.040795732 -0.032323685 0.026334323 -0.050358754
000160 e2 18 9d 3d 85 d3 31 bd 2c 4b 90 3d 58 30 a4 bd
       0.07670762 -0.04341461 0.07045588 -0.08017033
000170 45 f4 6f 3d 61 5f 1a 3d 4e ca 87 3d 92 45 1a bd
       0.058582563 0.037688617 0.066303834 -0.037664004
000180 20 1f 87 bb 4f 53 5b 3d 77 a5 04 be 5c 26 e3 bc
       -0.0041235834 0.053546246 -0.12953745 -0.027728252
000190 c9 af a5 3c 02 c8 91 3c 2b 73 59 bc 79 43 b7 bc
       0.020225422 0.017795566 -0.013272087 -0.02237104
0001a0 28 8a 09 3d c6 9b 60 3d fb 20 8e bd f3 8d 82 3d
       0.03357902 0.054836057 -0.06939884 0.06374731
0001b0 62 b9 55 bd d5 2b 98 3d 4a 1f 80 3d eb 5c 9a 3c
       -0.052178748 0.07430235 0.06255968 0.018843135
0001c0 00 08 68 3d 22 a0 3b bd 50 7b 66 bd 3e d6 1d bd
       0.056648254 -0.04580701 -0.056269944 -0.038534395
0001d0 cd 9c b1 3c 24 1f 3c bd 53 69 c7 3c 0c 57 ca bc
       0.021681214 -0.045928136 0.024342215 -0.02469971
0001e0 eb 5c 0d bd 23 81 c4 3d 7b 78 ae 3d 92 32 31 3d
       -0.03451244 0.095949434 0.085190736 0.04326112
0001f0 73 f9 41 3d 16 a0 c3 3d 08 a7 5d bd 25 37 42 3d
       0.047357034 0.09552018 -0.05411437 0.04741587
000200 fe 9a 49 3d 26 52 1d 3d ff 93 a8 3d a4 9c 9b bc
       0.049220078 0.03840842 0.08231353 -0.01899559
000210 ef a6 27 3d 0f 62 af 3c 3b 6f a0 3d 1f 01 ba bc
       0.040930685 0.021409063 0.078337155 -0.022705613
000220 ee c5 31 3c a6 f9 07 3c 57 40 90 bd f8 b3 af 3d
       0.010850413 0.008299267 -0.07043522 0.08579248
000230 50 50 6a 3c ef d6 39 3d 45 a3 04 3c 27 60 17 3d
       0.014301375 0.045370992 0.008095567 0.036956932
000240 52 0b 86 bd aa fb 86 3d d7 24 08 3d 1c 45 89 3b
       -0.06545128 0.0659097 0.03323826 0.0041891467
000250 db b4 85 bd 64 7f 8e bc 97 21 cf bc 55 23 9a 3d
       -0.06528636 -0.017394729 -0.025284572 0.0752627
000260 78 f0 f5 bc 5a 61 ca 3d 15 12 d5 3c 0f 92 2e bd
       -0.030021891 0.098818496 0.026009599 -0.04261976
000270 b0 f0 57 bd 34 1c f1 3b c4 c2 f2 3c 7e 77 c4 3d
       -0.05271977 0.0073580984 0.029633887 0.09593104
000280 23 c5 55 bc 2f 43 b8 3d 1a b3 68 bd 3c f6 9f 3b
       -0.013047489 0.08997189 -0.05681143 0.0048816483
000290 db 8d 13 3b 66 96 bc 3d a1 f2 82 3d 14 26 6f bd
       0.0022514972 0.09208374 0.06393934 -0.058385924
0002a0 61 09 75 b9 d5 36 1b 3b b4 35 77 3d 4f 4f 71 bd
       -0.00023368515 0.0023683805 0.06035395 -0.058913525
0002b0 95 1a 44 3d cf c0 f7 bc 7a 69 7d bc ef f2 53 bd
       0.047876913 -0.030243305 -0.015467042 -0.05174535
0002c0 33 fc 1e 3d b2 32 af 3d 41 45 0c 3d e5 6d 3e bc
       0.038814735 0.08554591 0.034245733 -0.011622881
0002d0 98 47 ad bc 88 4a 9b bd 8d 1a d4 bc 0e 68 7d 3d
       -0.021152303 -0.07582575 -0.025891567 0.061866812
0002e0 a0 bc 3b 3d 8e 69 77 bd c3 25 17 bd f0 29 66 bc
       0.045834184 -0.0604034 -0.036901247 -0.014048085
0002f0 1d ba ce 3b bb 12 be 3d e5 63 ad bc 96 34 94 3c
       0.0063088075 0.09280916 -0.021165797 0.018091481
000300 ea 21 eb bc 33 db 43 3d 8a 24 29 bc 6e 5c bc 3d
       -0.028702695 0.047816467 -0.010323653 0.09197317
000310 e3 ce 8d 3d 39 cf cb 3d bb 54 83 3d 3e e2 3d bd
       0.06924226 0.09951634 0.064126454 -0.04635834
000320 dd 04 76 3c 57 ca 93 3d 15 c9 69 bc d4 87 93 3d
       0.015015808 0.07216328 -0.014269133 0.072036415
000330 1f c7 ca 3c ff 30 36 bd 85 5c c4 3d 33 2c 70 bd
       0.024753151 -0.04448032 0.09587959 -0.0586359
000340 b6 de 83 bd 77 e1 54 3d 62 9b 71 3d 76 08 a0 bd
       -0.06438963 0.051972833 0.058986075 -0.07814114
000350 f1 7a b0 bd de 16 76 3d d4 06 b0 3c c6 37 8d 3d
       -0.08617199 0.0600804 0.02148763 0.068954036
000360 dc 04 a9 bd 7d 5e fa bc 53 1c c8 bd 67 7d b7 bd
       -0.0825288 -0.030562634 -0.097710274 -0.089594655
000370 6c 15 64 bd 35 71 61 3c 2b 30 2d bc d3 ee 33 ba
       -0.055684492 0.013759901 -0.010570566 -0.00068638957
000380 ba 0b a9 3b d5 80 a0 bd a4 fd 23 bc 45 35 8e 3d
       0.0051588686 -0.07837073 -0.010009203 0.06943754
000390 cf d9 87 3c 48 f9 7d 3d 01 69 83 bd 2c 36 5b 3d
       0.016583351 0.06200531 -0.06416512 0.05351846
0003a0 bb 7d aa bc c1 24 cf 3c bb 5e 91 bb 05 99 b6 bd
       -0.020811906 0.02528608 -0.0044363416 -0.08915905
0003b0 68 81 2e 3d 7f 6e 23 3d ca eb 1b bc 15 10 dc bc
       0.04260388 0.0399003 -0.009516666 -0.026863137
0003c0 a3 c8 6e 3c 13 a9 6f 3c 48 74 4c 3a 80 54 98 3d
       0.014574203 0.014627713 0.00077993097 0.07437992
0003d0 9a c6 80 3d 59 9f b3 3d b2 ee 58 bd a2 56 b6 3d
       0.0628788 0.087706275 -0.052962013 0.08903243
0003e0 d3 6a 6d 3d d0 ca 50 3d 3c 5b fa bb b9 63 2b b9
       0.057963204 0.050974667 -0.0076402705 -0.0001634498
0003f0 59 5c 85 3d 6a c7 5c bc 2f 3d ac 3b 5f 81 aa 3c
       0.065117545 -0.013475278 0.005256317 0.020813642

decoder.2.bias f4 [16]
000000 31 a9 6b bd 60 c1 5b ba 6b c7 bc bc d4 90 93 3d
       -0.0575344 -0.0008383002 -0.023044309 0.07205358
000010 c6 ef 90 bd 64 5d a0 3c fc 4e 86 bd 88 1d 97 3d
       -0.07076983 0.019575782 -0.06558034 0.073786795
000020 fc 21 94 3d 3f 12 a0 3d 08 21 ef bc 16 0e 34 bd
       0.072330445 0.0781598 -0.029190555 -0.043958746
000030 23 45 ac 3c 1e 4a b8 bc 46 ed e3 3c 8c d4 b6 3d
       0.02102906 -0.02249628 0.027823102 0.08927259

decoder.4.weight f4 [16, 1, 3, 3]
000000 88 b7 87 3d fa 7f 0f 3e 68 fa a5 be 64 b3 40 3c
       0.06626803 0.14013663 -0.32417607 0.01176152
000010 ee 43 ac 3e 86 2d 85 be aa c4 76 bd 74 48 68 3e
       0.33645576 -0.26011294 -0.060246147 0.22683889
000020 33 43 05 3e 89 0c 77 be ee f5 8d 3e bb c1 ac 3e
       0.13013916 -0.24125876 0.27726692 0.33741555
000030 94 70 9f 3d ca a9 08 3e b6 84 20 3e 57 c0 43 3e
       0.077851444 0.1334602 0.15675625 0.1911634
000040 ba bc 71 bd 4d 5f 49 be 3b 55 9e bd 77 4b 8f 3c
       -0.059017874 -0.1966526 -0.077311 0.01749204
000050 37 61 66 3d 4f f7 8a 3e 4d 3b 50 3e de 6e b4 3e
       0.056245055 0.27141806 0.20335121 0.35240835
000060 2b 20 9a 3e 75 10 89 3d 27 50 1d 3e 05 cd 8b be
       0.30102667 0.06692592 0.15362607 -0.27304855
000070 00 83 70 3e b8 32 47 3d 48 79 49 3e b3 f6 b2 bc
       0.23487473 0.048632354 0.19675171 -0.021846151
000080 a2 16 6a 3d fb 34 86 3e fa 37 69 bd 54 d0 a3 3e
       0.05715049 0.26212296 -0.05693815 0.3199488
000090 42 7e f8 3c 12 e5 21 3d 26 4b 9e be 58 58 1b 3e
       0.030333642 0.0395251 -0.3091671 0.15170419
0000a0 e8 0d 47 3e 8b ec 7d be f7 5d e8 bd 46 a0 61 3e
       0.19438899 -0.24797265 -0.11346047 0.22033796
0000b0 aa 65 92 be 59 c8 72 3e f6 22 46 be b4 c7 57 be
       -0.2859319 0.23709239 -0.19349274 -0.21072274
0000c0 a3 be 26 3e 65 94 17 3e 89 88 8a be 6b ee 5f 3e
       0.1628366 0.14802702 -0.27057293 0.21868293
0000d0 1c a2 4b 3e 3f 1d a5 3e ff d7 80 3c 47 8c ae 3b
       0.19886059 0.32248875 0.015727995 0.005326781
0000e0 57 17 93 3e 1a 37 87 3e c5 b6 be 3e 48 d1 15 be
       0.28728744 0.26409227 0.37248817 -0.14630616
0000f0 1c 46 2d 3e 5f 0c 9c 3c b3 e5 95 3e e0 36 84 3c
       0.16921276 0.019048868 0.2927681 0.016139448
000100 09 75 b4 bd c2 e1 3b bd 46 8c 3c be 97 ef 33 be
       -0.08811385 -0.045869596 -0.18412885 -0.17571865
000110 12 d3 93 3d 8e 69 a4 3d c8 d5 42 be f6 28 c2 bc
       0.07217993 0.080279455 -0.19026864 -0.023701172
000120 09 a6 a7 3e c6 39 8b 3e fb 67 69 bd 84 4f 76 3d
       0.32743862 0.27192515 -0.05698393 0.060134426
000130 13 f8 b4 be aa 3c 88 be 97 cf 84 be f8 11 33 3e
       -0.35345516 -0.26608783 -0.25939628 0.17487323
000140 de 43 8d be 46 45 5a 3d ad 84 ac 3e 68 e6 7e 3d
       -0.2759084 0.05328872 0.33694974 0.06223145
000150 d7 6a 09 3e f5 8f 47 be 52 df e3 bd ab 16 99 be
       0.13419662 -0.19488509 -0.11126579 -0.29900107
000160 7f 6d 18 3e e5 60 15 3d 85 2e f0 bd 0b 61 2c be
       0.1488552 0.03646936 -0.11727623 -0.16833894
000170 2d 0b 5d be 73 bf 4c bd 30 34 50 3d e4 17 3a be
       -0.21586294 -0.049987268 0.05083102 -0.18173176
000180 7d d7 ba bd 03 e1 b6 be 35 7c 83 3d 62 d6 98 3e
       -0.091231324 -0.35718545 0.06420175 0.2985106
000190 20 fa 54 3e ad 61 8e bd 27 9d e8 3d 9a 71 8d 3d
       0.2079854 -0.06952224 0.113580994 0.069064334
0001a0 3d 63 37 3e 4f f4 85 be 5f 6f 51 be 09 ca 2c 3e
       0.1790895 -0.26162955 -0.20452641 0.16873945
0001b0 6e d3 a5 be 03 3f 80 3d 36 8b 25 bc eb b6 b2 be
       -0.3238787 0.062620185 -0.010103991 -0.3490518
0001c0 e0 82 f9 3d 52 20 5b be dd 25 51 be 6b 4b 02 bb
       0.121831656 -0.21399048 -0.204246 -0.0019881378
0001d0 dd 51 fe 3d 49 22 81 3c f7 25 4e 3e 5c 56 84 3e
       0.12417958 0.015763419 0.2013167 0.25847137
0001e0 4b b9 1e 3e a9 53 9c 3e 38 0e 16 3e 05 27 2c be
       0.15500371 0.30532578 0.14653862 -0.1681176
0001f0 7d cd 83 3e df e6 91 3d 42 5b 05 3e 27 17 30 be
       0.25742713 0.07124113 0.13023093 -0.17196332
000200 31 a1 bc bd f5 29 36 bb c1 ce ed 3d 5b 2c 3d 3d
       -0.09210432 -0.0027796004 0.11611701 0.04618488
000210 ff 64 aa 3c 80 ba 97 3e b2 d3 78 be 77 0e a8 3e
       0.020800112 0.29634476 -0.24299505 0.32823536
000220 2c 6e 75 bc df 7d 33 3d ef af 67 3d 49 23 49 be
       -0.01497988 0.043821212 0.056564268 -0.19642366
000230 45 af ad 3e e7 2c d5 3d ea 76 16 3e 16 1b 0c 3e
       0.33922783 0.10408955 0.146938 0.13682207
